models/cpu_temperature_predicter.pt (torch, 75583 bytes, 11 tensors)

weight_ih_l0 f4 [128, 1]
00000000: ec58 3f3e 095e f3bd c716 c43d d16b 033f
00000010: edfe 303f f5b1 06bf 55e4 0cbf d733 f83e
00000020: 3801 113c 88d0 e5be fa07 253f 1285 983c
00000030: f37e 4abe 60a4 e0be 2b25 d73e 2a91 d13c
00000040: 8375 023f 67c7 c83e 40fc 403e 671c b33e
00000050: c0ed b83e 6b66 8b3e 7e0d 3c3e df29 083e
00000060: 8e6d 46be fabc ba3e cbc0 83be 4f59 c13e
00000070: 40b2 043f a5da cbbe fb5b c23e 5b4b 203f
00000080: 8302 f2be a3cf 07be 7248 e1be d3fd 13bf
00000090: f984 393f 9ea9 39bf c762 0bbf 7107 ef3e
000000a0: 4ef7 0a3f 3a3b 3dbf a1b4 1b3f 39b2 30bf
000000b0: 4a7f dabe c55f 2ebf b669 243f 304d 0ebf
000000c0: e556 ec3e 4d6e da3e 62c8 d2bd c4d2 8f3e
000000d0: 7fef 243f 56a1 7ebe 6d74 fc3e bd1f 1cbf
000000e0: 46d8 09bf ffb7 ff3e 14dc 17bf 5b4f 443f
000000f0: 6efd db3e 1713 3fbf 136e 8cbe 6577 f43e
00000100: c77e 1bbf 026b 21bf 5aac 13bf a132 12bf
00000110: 7e16 4e3f 62dd 24bf 26c2 3dbf 87a8 48bf
00000120: 0522 d1be 4b0d 2bbf 46f5 31bf a279 323f
00000130: 57e3 193f d46a 44bf ecc4 21bf 0fdf 26bf
00000140: 1792 2f3f c078 0b3f aa49 213f fe72 4b3f
00000150: 7c8c 0f3f 1140 3c3f a7fc 163f 2224 14bf
00000160: 09f3 063f bfce 12bf 1cbd 1b3f 6632 3a3f
00000170: 56bc 17bf c3ad 253f 3871 073f e39d f33e
00000180: 6cb9 c03d df7c 34bd 4401 0c3e 7b6f ae3e
00000190: b3b3 3c3f 46b5 32bf 64db 2dbf 22fa 043f
000001a0: a84b 263f 1c84 36bf 2ee1 363f bda6 dfbe
000001b0: edcd 8dbe 814f 28bf 5d18 113f cb3d 2bbe
000001c0: b126 003f 72f3 c43e 7e0a 793e 5f4e 993e
000001d0: e4a3 a33e 1a6f 323e 083b f93e 1910 2fbe
000001e0: 249e c93d 81c3 143f 3521 14bf e955 1e3f
000001f0: ea57 cb3e 445a 29bf 31fc 833e 026c 183f
0.18686265 -0.1188317 0.09574657 0.5133639 0.69138986 -0.5261529 -0.5503591 0.4847705
0.008850388 -0.4488566 0.64465296 0.01861814 -0.1977499 -0.43875408 0.42020544 0.025581915
0.5096056 0.39214632 0.18846226 0.34982607 0.3611889 0.27226576 0.18364522 0.13297223
-0.1937773 0.36472303 -0.25733027 0.3776345 0.5183449 -0.3981525 0.379608 0.62614983
-0.4726754 -0.13262801 -0.44000584 -0.5780918 0.72468525 -0.7252444 -0.544476 0.46685365
0.54283607 -0.739185 0.6082249 -0.69021946 -0.4267524 -0.6811488 0.642238 -0.5558653
0.46160045 0.42662278 -0.10292126 0.2809049 0.6442794 -0.24866232 0.49307576 -0.6098593
-0.5384563 0.49945065 -0.5932019 0.76683587 0.4296679 -0.74638504 -0.2742773 0.4774734
-0.6074032 -0.63053906 -0.5768486 -0.57108504 0.8050307 -0.64400303 -0.7412437 -0.7838215
-0.40846267 -0.6681716 -0.6951488 0.69716847 0.6011252 -0.76725507 -0.63191104 -0.6518411
0.6858229 0.54481125 0.6300303 0.7947234 0.5607374 0.7353526 0.58979267 -0.57867634
0.5271459 -0.5734672 0.60835433 0.7273315 -0.5927175 0.64718264 0.52907133 0.47581396
0.094103664 -0.0440644 0.13672358 0.34069428 0.737117 -0.6980785 -0.6791289 0.5194417
0.6495919 -0.7129533 0.71437347 -0.436819 -0.2769617 -0.65746313 0.566778 -0.16722791
0.5005904 0.38466984 0.24320409 0.29942605 0.31960976 0.17425194 0.4867785 -0.17095985
0.09844616 0.58110815 -0.5786317 0.6184984 0.3971551 -0.6615336 0.25778344 0.59539807

weight_hh_l0 f4 [128, 32]
00000000: 3e9f 9dbe 36b4 cd3e c753 d3be 1216 0dbf
00000010: b967 0cbf 1db3 43be 8a21 c1be f0f3 0e3f
00000020: 7517 d93e 47bc c5bd c995 833e 59b3 b73c
00000030: 51b5 5b3e cb72 8a3d bf3d 043f a28e ab3b
00000040: 3f80 9cbe a32c 00bf 0d06 29bf e613 0bbe
00000050: f716 75be 2139 52be b3ad 79be 28f2 0d3e
00000060: a366 4a3f d562 b73e a1c9 913d d00a 15bf
00000070: 232e fd3e df9e 0d3e bec3 ba3e 67ac b2be
00000080: bbc0 5fbe e32e 963d d476 a5be 05d6 16bf
00000090: 8aad 973e bf2c d73d 8d50 383d adb0 64bd
000000a0: f4cc cdbd 544e f4be c6c2 93be 916e 1f3e
000000b0: 641e 903d 0a46 80bd 01f8 bb3c b36e 913e
000000c0: a086 38be b25b ccbe 6a3a 753e e757 1a3e
000000d0: 20e5 543c 3b73 04be f156 9cbd 5700 e73d
000000e0: 2d18 903e f3c8 d13c 573f 73be 135f 5e3d
000000f0: 3e94 cd3a 8128 773e 310a eb3e afc8 cebe
00000100: 3da7 14bf 8031 4b3e 9c84 04bf e5d0 c2be
00000110: e08a 09bf ad53 1fbe b141 e6be ca5f 013f
00000120: 21b3 173f 9bc7 81be 30ab bb3e 22d8 70bc
00000130: 0ff1 e93e 3406 913c 0949 e83e c655 9b3d
00000140: cd7e ffbe e672 2bbf fe9e 01bf d85e 08be
00000150: 6e06 a2be 3586 073d 35f9 e2be b6f5 4d3e
00000160: 5829 303f 5101 163f c3a5 d73d 3864 e8be
00000170: 8c15 0abd ae7e 453e 2cf5 913e 3b51 88be
00000180: 593a b3be ab45 21be a236 26bf 7299 debe
00000190: b6f6 febe cc29 1cbf 5707 16bf d558 c73d
000001a0: a293 da3e 3386 bbbe 3999 153f 2fb5 dd3e
000001b0: 8094 c03e 8209 d3be 9176 d03e 16ba f3be
000001c0: 13d8 af3e 2ae0 0abe b9f9 e13e 4989 983d
000001d0: 680b 0abf c14d 993e 6b40 223e 313d dbbe
000001e0: 1617 f33e 7c1d 933e d76e 283f e6c0 efbd
000001f0: 3b14 52bd b0ba 2a3f 61d6 a43e 0012 d83d
00000200: 979d d7be 2f39 6c3e 603c c6be 8a6a 27bd
00000210: ed50 d43e 2451 df3e 2cf5 c73e 6be7 fcbe
00000220: e7e5 d43e f99f 8ebc 52d1 04bf e197 833e
00000230: 12e5 14bf 8a8f 653e 709d 8bbe 0b65 1d3e
00000240: f2a7 233e 4dcc 373e 1698 8e3e f268 073f
00000250: 9ff0 173f 631b b33e 8c42 7a3e f943 ce3e
00000260: d4c2 3ebe d591 04bd 51cb 3abe 9244 de3e
00000270: f012 19bf b384 f5be caf0 c1bc 21a3 513e
00000280: b7d8 cdbe e5ff b9be b826 9fbe bb16 07bf
00000290: 383b 9b3e f5d0 c5be 2a14 c7be dabd 36be
000002a0: 6950 a33e 2854 36be b177 00bf d494 cd3e
000002b0: 54c7 893e d054 8ebe e882 b33d a38d 01bf
000002c0: a719 033f 4026 7d3e 782f be3e 533d c03e
000002d0: d8bf 84be 861c ea3e 1da3 12be 5b08 9fbe
000002e0: f1f3 22be c955 b6bd 3c9d 613e fab9 ba3e
000002f0: 4201 87be 8fc6 6a3e 15fb 883e 39c2 86be
00000300: 16a6 f4be 2ae2 2ebe 1b71 39be 6712 00bf
00000310: 132f 853e fc7b bf3d fa05 883e c924 0fbf
00000320: 49bd 0c3e 1375 c2bd ae35 2abf fed0 5c3e
00000330: 6b09 51be 69e7 88bd 286e 1dbf e5e3 94be
00000340: b23f 163f 41ae e43e 0c65 793e 0ac0 4c3e
00000350: 7663 113f cf33 c83e 3376 8d3e 9925 37be
00000360: 1691 94be 0be2 a9be 36fa aabd e6db e13e
00000370: a246 04bf 805e efbd cb39 973e 0f14 e33e
00000380: 1d5e aebe f98b c0bd 8ea0 89be 6d42 51be
00000390: 11d7 de3e 9e2c c43e 3052 633e 096a cbbe
000003a0: 94be 1a3f 943b 2c3e a779 03bf 2aa5 d8bd
000003b0: 1b12 4ebe e03c 673d 7776 fbbe 23ee b0bd
000003c0: f0ae 133f 1c84 a63e 025a c03e d971 0b3f
000003d0: 40e1 023f 232d d13e d3c1 83bd 0a77 283e
000003e0: a13f 83be 4a40 c9be ebd3 9dbe 6ade 063f
000003f0: 8624 4fbe 1ecf 89be c40e ea3e 2a7e 21be
-0.30785555 0.40176553 -0.41274855 -0.551118 -0.5484577 -0.19111295 -0.377209 0.5584097
0.4240071 -0.09655052 0.25700215 0.022424387 0.21455885 0.06760176 0.5165672 0.005235509
-0.30566594 -0.5006811 -0.6602486 -0.1358181 -0.23934542 -0.20529605 -0.24382667 0.13861907
0.7906286 0.3581759 0.07118536 -0.58219624 0.49449262 0.13830136 0.36477464 -0.34897158
-0.21850865 0.07333162 -0.3231722 -0.5892032 0.29624587 0.105065815 0.044998694 -0.055832554
-0.10048857 -0.4771601 -0.28859538 0.15569521 0.070370466 -0.06263359 0.022945406 0.2840477
-0.18020105 -0.39913708 0.23948064 0.15072595 0.012994081 -0.12934582 -0.0763377 0.11279362
0.28143445 0.025608515 -0.23754631 0.05428989 0.0015684438 0.24136545 0.45906213 -0.40387484
-0.58067685 0.19843102 -0.51764846 -0.3805 -0.5372753 -0.15559264 -0.44971994 0.5053679
0.59257704 -0.253476 0.36654043 -0.014699968 0.45691726 0.017703153 0.4536822 0.07584719
-0.4990143 -0.66972196 -0.5063323 -0.1331743 -0.3164553 0.033086974 -0.44330755 0.20113263
0.68813086 0.5859576 0.105296634 -0.4538896 -0.033711955 0.19286606 0.28507364 -0.26624474
-0.35005453 -0.15749232 -0.64927113 -0.43476444 -0.497976 -0.61001277 -0.5860495 0.0973374
0.4269076 -0.36625823 0.58436924 0.43302295 0.37613297 -0.4121819 0.4071546 -0.4760291
0.3434454 -0.13562074 0.44135836 0.0744806 -0.53923655 0.29942134 0.15844886 -0.42820123
0.4747855 0.28733432 0.6579413 -0.11706714 -0.051288825 0.6669111 0.32194808 0.10550308
-0.4211242 0.23068689 -0.38717937 -0.040873088 0.4146799 0.43616593 0.3905424 -0.49395308
0.41581652 -0.017410265 -0.518819 0.25701812 -0.58162034 0.22418037 -0.27268553 0.15370576
0.15982035 0.17949028 0.27850407 0.5289451 0.59351534 0.34981832 0.24439448 0.40286234
-0.18629009 -0.03236564 -0.18241622 0.4341169 -0.5979452 -0.47952804 -0.023674387 0.20472385
-0.40204403 -0.36328045 -0.31084228 -0.5276906 0.30318618 -0.38635984 -0.3888257 -0.1784586
0.31897286 -0.1780554 -0.50182635 0.4015261 0.26909888 -0.27799082 0.08765203 -0.50606745
0.5121102 0.24721622 0.3714559 0.37546787 -0.25927615 0.45724887 -0.14320035 -0.31061062
-0.15913369 -0.08903081 0.22032636 0.36470014 -0.26368147 0.22927307 0.2675406 -0.26320055
-0.47782964 -0.17078462 -0.18109553 -0.5002808 0.26012477 0.0934982 0.2656706 -0.55915505
0.13744082 -0.094949864 -0.6648816 0.21564099 -0.20413749 -0.06684763 -0.6149621 -0.2908012
0.5869094 0.44664195 0.24354953 0.19995132 0.5679239 0.39102027 0.2762924 -0.17885436
-0.29016942 -0.3318027 -0.08348505 0.44113082 -0.5167028 -0.11687946 0.2953628 0.4435124
-0.34056178 -0.09401698 -0.26880306 -0.20435496 0.43523458 0.3831529 0.22199321 -0.39729336
0.6044705 0.16819602 -0.513575 -0.105783775 -0.20124094 0.05645454 -0.4911382 -0.08639171
0.5768881 0.32522666 0.3756867 0.5447059 0.51124954 0.4085475 -0.064334534 0.1645166
-0.25634483 -0.3930686 -0.30825743 0.52683127 -0.20228776 -0.2691583 0.4571439 -0.15770784

bias_ih_l0 f4 [128]
00000000: f2b6 f7be f5bc f3be 5c10 0fbf 84b4 07bf
00000010: eeb1 9c3e 1791 d9be d7cf a73d eccd 7f3d
00000020: b798 45bf 1f0e 1dbf f09e c8be c0b7 b7be
00000030: fe84 d2be de3a 6c3e 45a5 cfbe 836c 64be
00000040: c91e 7dbe 06f5 2fbf 0894 36bf 323d 7c3e
00000050: fc40 22bf 763f 233d 2161 bdbe 575d c6be
00000060: 940f 1cbf 388d ccbe c174 cabe f928 e3bd
00000070: ba95 c4be c00b b0be 6ec6 f0be 0870 2bbf
00000080: daac 0fbf f088 e2bd b8bd 97be 4ee6 0abf
00000090: 11ba 47be 4ddf 50bd 0ffa 523d 83ef ffbd
000000a0: ee31 fcbe 213e dbbc 3bf7 45be 0fe6 eebd
000000b0: 579f 20bf 5140 4e3e 2260 14bf d432 84be
000000c0: 6131 17be 6fb5 93be 0eb2 8fbe 2d95 203d
000000d0: f9f8 1fbf 13d0 983d 91ca fcbe 2198 aebe
000000e0: 855a 0dbf 4f06 b5be 1bf0 45be 4824 aabd
000000f0: 5627 c9be 9741 033e a778 0bbf 8f08 e9be
00000100: 90e8 04be 637a 8abc 05c4 313e 537b fd3b
00000110: 9e68 5c3d aa6d 23bd aeef 0ebe f49c 7b3d
00000120: 1959 15be f7be 96bd 3fde 493d da05 96be
00000130: 5232 f7bc 386c 19be 149f c83d 366c 983d
00000140: 3822 0d3e 3d5a 853c 12a4 72be 1548 00bd
00000150: fe1a 92be 326f 773b a9e5 433e 202e e03d
00000160: 14b1 26be a3a7 3d3d a785 c43d edab 883d
00000170: db48 113e 4846 4cbe b63e c53c aace 0f3d
00000180: 31be f2be afce f3be a451 19bf ded4 17bf
00000190: 3e0f 153e 46ac 6cbe 68b6 20be e94c 4b3e
000001a0: 78ce 4fbf b220 08bf 950c a3be efbb 10bf
000001b0: 4700 fdbe 30bc 3d3e 4aa2 afbe bd79 cfbe
000001c0: 3988 f3bd f686 efbe eb67 24bf 8f7c f23e
000001d0: b996 11bf ab7c af3e abfb 0abf fe0d a6be
000001e0: c088 1fbf cd2f 2bbf bc62 11bf 96ac 19be
000001f0: 1744 e6be 4a42 e8be 9952 14bf dbd6 e7be
-0.48381764 -0.476051 -0.5588434 -0.5300982 0.306045 -0.42493507 0.08193939 0.06245224
-0.7718615 -0.6134967 -0.3918376 -0.35882378 -0.4111709 0.23069331 -0.40555778 -0.22307019
-0.24718775 -0.6873325 -0.7131963 0.24632719 -0.6338041 0.039855443 -0.36988166 -0.38743088
-0.6096127 -0.3995149 -0.395422 -0.11091799 -0.38395482 -0.34383965 -0.4702639 -0.6696782
-0.56123126 -0.11061275 -0.2963693 -0.5425767 -0.19504572 -0.050994206 0.051508006 -0.12496855
-0.49256843 -0.026763024 -0.19332592 -0.11664974 -0.62743133 0.20141722 -0.5795919 -0.2582003
-0.1476493 -0.2884936 -0.28065532 0.039204765 -0.6248928 0.07461562 -0.49373296 -0.3410044
-0.55216247 -0.35356376 -0.19329874 -0.08307701 -0.39287823 0.1281799 -0.54480976 -0.45514342
-0.1297934 -0.016904062 0.17359932 0.0077356487 0.05381071 -0.039899506 -0.13958618 0.06142898
-0.1458477 -0.073606424 0.049284216 -0.2930134 -0.030175362 -0.14982688 0.09795967 0.074425146
0.13782585 0.01627838 -0.236954 -0.031318743 -0.28536218 0.0037755487 0.19130577 0.10946298
-0.16278487 0.04630245 0.09595805 0.06673417 0.14187948 -0.19948685 0.024077754 0.0351092
-0.4741073 -0.47618625 -0.598902 -0.59309185 0.14556596 -0.23112592 -0.15694582 0.19853558
-0.8117442 -0.5317489 -0.31845537 -0.56536764 -0.49414274 0.18528819 -0.34303504 -0.40522566
-0.11891217 -0.46782655 -0.64221066 0.47360656 -0.5687061 0.34274802 -0.54290265 -0.3243255
-0.6231804 -0.66869813 -0.5679128 -0.15007243 -0.44973823 -0.45363075 -0.57938534 -0.4528111

bias_hh_l0 f4 [128]
00000000: 3c4d e1be 9a43 79be 2000 3bbf efc4 24bf
00000010: 8c34 a43d c78c efbe d187 16be 5c9a 41bd
00000020: 04ba 4dbf 316e e8be 10a0 99be c118 08bf
00000030: d4ab b8be fa42 c13e 9cf9 7fbe 9897 c9be
00000040: 5e04 5abe be4e 2ebf 1713 12bf 975d 893e
00000050: 0745 0fbf 9fea 48bd 030d 2dbf 05f1 01bf
00000060: 3dc7 00bf e54b 03bf 3ad9 0dbf e952 3f3d
00000070: b364 0dbf 33a9 febe 3196 d9be 1887 bfbe
00000080: eccf 1cbf 2aaa 64be 77b6 a8be 13d2 19bf
00000090: 35c2 bc3d 9b9f 53be 1343 fdbc b15b d53d
000000a0: 7339 2fbf 2ab5 c43c 0d59 9abe 799c 17be
000000b0: 7875 ddbe ef9b 643d dc1a c7be 6058 a0bd
000000c0: 2cc3 f3bd 6562 36be 4687 a9be 5bbc 30be
000000d0: e298 2bbf 1e09 98bd 23f5 97be 32b1 b2be
000000e0: d695 2bbf e46c c1be 41e7 69be ca16 c13b
000000f0: 99b7 bebe 051e a73d 3fb7 a1be ebfc d8be
00000100: ce1a 47bc 7a4e 083e cacf b2bc e7ed 40be
00000110: 3260 2f3d 2e80 483e 951a 1abc 423d 29be
00000120: c1ff e73c a608 5d3e 9941 033e 8d50 02be
00000130: 3dee e3bd 7f04 d93d 1e6b 1d3e aaca a93c
00000140: b541 c93d e2f8 c6bc 7adb 01be 8928 4d3c
00000150: f957 97be ef80 263d de23 2b3e 613b 1cbd
00000160: 227b bd3c 00b9 803d e2e8 4dbe 1520 983d
00000170: baf4 aabc ef9e 833c a7fc 4e3e e515 a13e
00000180: f1e3 0bbf 933c bdbe f932 fbbe cc8e 0cbf
00000190: 02e1 a03e c75e e7be b32d 7bbc 3c32 9d3e
000001a0: 96bf 3abf 9217 babe 1c17 fbbe 177c 0cbf
000001b0: 39db aabe c69d 983e 65e7 dcbe ef36 4bbe
000001c0: 267e bcbd 5bc8 f6be 3201 d1be 750c 7d3e
000001d0: b2ce 08bf 9bc6 383e 509e 10bf cf30 cabe
000001e0: d8e2 2abf b4b5 dbbe f925 c2be fe51 34be
000001f0: b48a a9be 1d2c d7be b9af e8be 321c 09bf
-0.44004238 -0.24342194 -0.73047066 -0.64362997 0.08017835 -0.46787092 -0.14700247 -0.04726635
-0.8036196 -0.4539657 -0.3000493 -0.5316277 -0.36068594 0.37746412 -0.24997562 -0.3937347
-0.21290728 -0.680889 -0.5706038 0.26829216 -0.559647 -0.049051877 -0.6759798 -0.5075839
-0.50304013 -0.5128768 -0.55409586 0.04670993 -0.5523178 -0.49738464 -0.424974 -0.37407756
-0.61254764 -0.22330537 -0.3295171 -0.6008617 0.092167296 -0.20666353 -0.030915773 0.104178794
-0.68447036 0.024012167 -0.30146065 -0.14805783 -0.43253684 0.055812772 -0.3888768 -0.07829356
-0.119024605 -0.17810972 -0.33111018 -0.17259352 -0.67030156 -0.07423614 -0.29679212 -0.34900814
-0.67025506 -0.3777839 -0.22842123 0.0058926092 -0.3724945 0.08160023 -0.31585118 -0.4238046
-0.012152387 0.13311186 -0.021827597 -0.18840753 0.04281635 0.19580147 -0.009405752 -0.16527274
0.028320195 0.2158533 0.12817992 -0.1272604 -0.11129425 0.10596561 0.15372893 0.02072652
0.09826986 -0.024288598 -0.1268138 0.012521871 -0.29559305 0.040650304 0.16712901 -0.038142566
0.023130003 0.06285286 -0.20108369 0.07427994 -0.020868648 0.016066996 0.20213567 0.31462017
-0.54644686 -0.36960277 -0.49062327 -0.5490539 0.31421667 -0.45189497 -0.01533072 0.30702388
-0.72948587 -0.36346108 -0.4904107 -0.54876846 -0.3337038 0.29807872 -0.4314529 -0.19845174
-0.092037484 -0.48199734 -0.40821224 0.24711783 -0.5344039 0.18044512 -0.56491566 -0.39490363
-0.66752386 -0.42912066 -0.37919596 -0.17609403 -0.33113635 -0.42025843 -0.45446566 -0.5355865

weight_ih_l1 f4 [128, 32]
00000000: 5f34 21bf e498 aebe a9eb 36bf 2723 2abf
00000010: 6e69 273f 89d1 c8be 7368 2dbf 660d 0abf
00000020: 22c2 093e 38b9 f7be 2127 04bf e44b bc3e
00000030: f413 af3e 8280 3ebf bc04 d6be 332d 1bbf
00000040: 64fb 0c3f 2f14 fb3e 501c 233f 082a 123f
00000050: a138 f63e ee2b ec3e afe5 293f c9f8 06bf
00000060: eb16 103f c8a1 50be ec3e 113f 52d8 e93e
00000070: a3d3 21bf d6db 1f3f 5960 0a3f f092 f93e
00000080: 5649 e2be bd83 d0be af97 0fbf 6f6a 21bf
00000090: 79b0 e13e 20be 48bf 10d7 c7be 3463 ffbe
000000a0: 58f2 9b3e 0dbe 0dbf defb 08bf efc1 1c3f
000000b0: 26dd 153f 6096 23bf d385 b3be 6e5d 0bbf
000000c0: 11e8 e13e a89f 113f 998b 0e3f e7f6 3a3f
000000d0: a2ab d03e 2ff0 173f 9241 893e 9081 32bf
000000e0: df42 c03e e561 de3e 0778 013f 7d1d e03e
000000f0: 7ee0 e8be 1575 243f 344e cc3e 7d20 493c
00000100: dea7 b4be 451e d73e a054 09bf 95d5 f4be
00000110: 7db4 3dbf 53c1 553e a756 82bd af3b 123f
00000120: 0d9d ea3e df43 adbe edb1 f23e e068 b83d
00000130: 5987 413d 5098 bdbd c542 1f3f cd62 033d
00000140: 069c 04bf 5370 3cbf 097c ab3d f14c f3be
00000150: b1ca 48be f056 09bf df77 03bf 0356 cb3e
00000160: 4fab f83e 2a4d a33e a220 623e a39b 21bf
00000170: 38c0 c93d a27b 313e 49d5 183e b75f 59be
00000180: 8c11 d8be f2cb b13e 8aa9 5ebe c524 01bf
00000190: 3a8f fcbe 30b4 bfbe ed99 04bf 4901 1c3f
000001a0: 835f 473e 3252 e6be cbb5 493f 0d37 2abc
000001b0: 3d93 c23e 95d4 c5bd 2587 183f ed19 41be
000001c0: e7b6 15bf dee4 23bf 322a edbd 1e8a 2fbf
000001d0: 6f72 b6be 68bc a9be 390a 12bf 54cb 3dbe
000001e0: 6c37 34be 6d9c 2a3f 2c02 9e3e 0617 0bbf
000001f0: 976c e93e 9342 dc3e 1eaf 313e 4fd0 4abd
00000200: d196 283d 958e 2d3f 4dd2 c7be cd8a f8be
00000210: d352 1dbf 35eb 21bf 2d90 34bf 725a f63e
00000220: 8208 7e3e e4cc 20bf 8467 1b3f 415f 2b3f
00000230: a5c0 a93c 1e0e 35be 3dcb 0d3f 0ff9 81be
00000240: 306b 24bf 3d3b 00bf 9f53 d43c b6b4 2cbf
00000250: a624 c3be c61c d4be 1d11 10bf 12d8 f03e
00000260: fbcc ed3c b6ae 203f 07bb 6b3d 3080 23bf
00000270: a6bc f23e 7236 fd3e ea5b c3be 6a78 9fbe
00000280: dd87 0a3f 341b 5a3e 4570 df3e 594e b33e
00000290: a6e2 b0be 5db4 81be 90ee 79be e439 523e
000002a0: 10d9 a63e 9606 aebe f78e be3e 430a 2bbe
000002b0: ff49 a4be 3da7 e5bd bbff 683e 5dea 6d3e
000002c0: 45d4 8fbe dbb5 03bf b3d1 bfbe 46e2 8abd
000002d0: 9c7d 0cbf 55c0 5cbe 3e6b b7be e4ac c73e
000002e0: a5d9 39be da00 813e 8b51 f8be 5fb4 eabe
000002f0: 3eb1 6e3e d8a4 0abd 4720 aebe c0b4 87be
00000300: ebb1 6a3e 7062 1b3f a2ea d9be 0e68 dabe
00000310: 705d 99be 636b 0cbf 453d 3cbf ba59 c53e
00000320: be35 cf3e 0644 19bf c1f1 183f dc5d 4d3e
00000330: adf5 1a3f 941e 6c3e e519 0a3f 840f c73e
00000340: d785 07bf 1cdd f2be 811b d1be afd3 e2be
00000350: 789b cabe a5e6 84be 33dd 05bf dbac f13e
00000360: 8b9b 9f3e a0e8 f73e 622c debc e985 d0be
00000370: 21f7 d13e 543b 0b3f ba31 e7be 05ce a8be
00000380: 6250 ff3e 99ac 1c3f fcbc 9dbe c9ab dfbe
00000390: 6898 e4be 173c 25bf 20b8 d2bd 6328 f73e
000003a0: b118 943e 1c43 0dbf 03b3 053f 9370 f83e
000003b0: e5eb 62be ce0d 373e 2995 b83e 61ef e93d
000003c0: 3ef4 04bf 7321 13bf 5f04 3a3e ab7f e2be
000003d0: dda9 98be 4375 abbe 6e81 04bf 53c1 c53e
000003e0: acc9 b13e fe19 c53e fa30 c43e 3445 14bf
000003f0: 0e15 ca3e 2580 b23e 83a0 d8be 953a aabe
-0.62970537 -0.3410102 -0.7145334 -0.6645989 0.6539525 -0.39222363 -0.677375 -0.53926694
0.13452962 -0.48383498 -0.51622206 0.3677665 0.3419491 -0.7441484 -0.41800487 -0.60615844
0.5507109 0.49038836 0.63715076 0.57095385 0.4809008 0.46127266 0.66366094 -0.52723366
0.5628497 -0.20374215 0.56736636 0.45672852 -0.63213557 0.6244482 0.54053265 0.48744917
-0.44196576 -0.40725508 -0.56090826 -0.6305303 0.4407995 -0.7841511 -0.39031267 -0.49880373
0.3045833 -0.5536812 -0.5350932 0.6123342 0.5854057 -0.6390133 -0.35063037 -0.5443944
0.44122365 0.5688424 0.5568176 0.73032993 0.40755945 0.59350866 0.2680784 -0.69728947
0.3755102 0.43434063 0.5057377 0.43772498 -0.45483774 0.64241153 0.39903414 0.012275812
-0.35284323 0.4201528 -0.5364475 -0.478192 -0.7410353 0.20874529 -0.06364184 0.5712232
0.45822945 -0.33840844 0.47401372 0.09004378 0.04724822 -0.09257567 0.6221126 0.032076646
-0.5180057 -0.73608893 0.08373267 -0.4751964 -0.1960857 -0.5364828 -0.51354784 0.3971406
0.48568198 0.3189481 0.22082761 -0.6312811 0.09851116 0.17332318 0.14925112 -0.21227919
-0.42200887 0.3472591 -0.21744362 -0.5044673 -0.49328023 -0.3744216 -0.5179737 0.6093946
0.19470029 -0.44984585 0.7879302 -0.010389102 0.3800296 -0.096596874 0.59581214 -0.18857546
-0.5848221 -0.640211 -0.11580314 -0.68570125 -0.3563418 -0.33151555 -0.5704685 -0.18534595
-0.17599267 0.66644937 0.30861032 -0.54332006 0.4559066 0.43019542 0.17351958 -0.049515065
0.041159455 0.6779569 -0.39027634 -0.48543397 -0.61454505 -0.6324952 -0.70532495 0.4811588
0.24807933 -0.6281264 0.6070483 0.6694222 0.020721743 -0.17681167 0.5538824 -0.2538533
-0.64226055 -0.5009039 0.02591878 -0.67463243 -0.38113898 -0.41428202 -0.5627611 0.4703985
0.029028406 0.6276659 0.05755141 -0.63867474 0.47409552 0.494556 -0.38156062 -0.31146556
0.5411356 0.2129944 0.43640342 0.35020712 -0.3454792 -0.2533292 -0.2440741 0.20529896
0.3258748 -0.339894 0.3721845 -0.16703133 -0.32087705 -0.11213539 0.22753803 0.23233934
-0.28091636 -0.51449364 -0.37464675 -0.067814395 -0.54879165 -0.21557744 -0.35824007 0.38999093
-0.18149431 0.25195962 -0.48499712 -0.45840737 0.233098 -0.033848614 -0.34009 -0.2650509
0.22919433 0.6069708 -0.42561823 -0.42657512 -0.299541 -0.5485136 -0.7353099 0.38545018
0.4047069 -0.5986942 0.5974389 0.20055336 0.6053112 0.2305854 0.5394576 0.38879025
-0.529386 -0.47434318 -0.40841296 -0.44302127 -0.39571738 -0.25957218 -0.5229065 0.4720219
0.31173357 0.48419666 -0.027120773 -0.40727165 0.41008857 0.543874 -0.45155126 -0.3296968
0.49866015 0.61200863 -0.30808246 -0.4368575 -0.44647527 -0.64544815 -0.10289025 0.48273
0.28925088 -0.55180526 0.52226275 0.48523387 -0.22160299 0.1787636 0.360513 0.11422611
-0.51935184 -0.57472914 0.1816573 -0.44238028 -0.29817095 -0.334879 -0.51759994 0.38624057
0.34724176 0.38496393 0.38318616 -0.57918096 0.39469188 0.34863392 -0.4230996 -0.3324782

weight_hh_l1 f4 [128, 32]
00000000: 9463 093c 6aba 65be 9a1d 4d3e 1de7 be3d
00000010: e11b 143f f71d 773c 8550 97be 2254 e63b
00000020: 5ecc 11bf 344f fdbe 7e44 90be d62f 21bf
00000030: de74 d4be 2e31 e4be a18c f4be af38 87bd
00000040: e727 3dbd 0349 103f 6851 003d 120f f03d
00000050: 0ea5 78be 66ca 05bf 33a4 20bf 3790 f93e
00000060: db8e c2bd f24f 093e d7b7 34bd be22 633e
00000070: bdac afbd 557d 0abf 566f c5be 2727 bebb
00000080: 7200 79be c43a f13d 33a0 77be 4441 bd3e
00000090: 2ebb 953c b1a0 a13d 448b cfbe f255 7b3e
000000a0: a60d 1bbf e6d0 1ebf 4c1b 1dbf 90f5 15bf
000000b0: 07d5 8dbe 6d79 d5be 4b2c 63be ec62 213f
000000c0: 0b35 f63e edd3 bf3e 3f08 debe 39eb 72be
000000d0: 132c e13e c99e 07bf 4d15 0dbf 3166 bf3e
000000e0: 8026 1dbe 56ca 323f 82ae a2bd f07a 9d3e
000000f0: 9226 963e a284 e3be f740 283d 2f41 4abe
00000100: e5a6 c5be 90cd 93be e078 cabd 0e71 7b3d
00000110: be55 dd3e 6686 83be 62ec 0fbf 6159 653e
00000120: fdf1 1dbf 712d 31bf bf4f 24bf d776 22bf
00000130: 0e77 84be 4daa e9be 595a 77be 55bd ef3e
00000140: ea44 96be 2755 e93e 44c1 efbe 8b9a 5b3c
00000150: 1081 b43e faa7 12bf 1493 9ebe 7968 a43e
00000160: 215a 803e 3a50 973e 9273 15bf 949a e23d
00000170: bff3 49be 308f 05bf 8783 a9be 9608 9c3e
00000180: d908 fbbe aec5 d2be 5988 ddbe 1a4d 103f
00000190: 0aa1 b53e 638d 083f 32f3 15bf ffae c43d
000001a0: 18b8 bdbe d45a e8be 05be a3be 5d53 a9be
000001b0: 9ae7 963e a777 31bf 4ba1 993e 3afe 103f
000001c0: cb61 d8be 2afc cd3e d774 1abf ec2d 3cbd
000001d0: ce82 2d3f 17f3 e8be 8e1d 09bf cc9e 193f
000001e0: fd14 ed3e 3781 2a3f 312e 12bf 4029 2b3d
000001f0: 4ae7 63be caf3 14bf 8ea4 223e f6af 9a3d
00000200: 4a6c 47bf f169 e63e 9acc e1bd 503c 263d
00000210: 7757 92bb 8f5e f53e d069 16bf c06c 943e
00000220: 2b09 f7be 8ff3 35bf e010 c23e 47b8 95be
00000230: 4b4c fcbe 9a9e 01bf 3f58 203f e46d 8c3d
00000240: 2e83 283f 361a 263f 849a 743d 1e98 04bf
00000250: 19d6 d33e 7b2e 0bbf a8f2 b7be 80e6 103f
00000260: 3f31 a83e 1fe2 de3e 3880 0e3f 0be4 3ebd
00000270: 7faf dc3e 6408 13bf 287b 0fbf 24a9 2d3f
00000280: f826 d0be 1940 843e 8c8d 88bc 2c41 24be
00000290: 4136 37be 4a18 fe3e 512d 86be 7dc8 c43e
000002a0: 0f45 273e 9b2b 1fbf cf52 993e 80ee 603e
000002b0: 8140 f7be 1166 603e e3df ff3e 0fc7 fbbe
000002c0: 8a2e cc3e 027b ea3d c9de df3e 7740 c8be
000002d0: c191 03bd c0f7 9a3e 4dcf d23e e735 f7be
000002e0: 8e3a e83e 02d2 4ebe 234a d43e 5633 e1be
000002f0: 32d1 013f a4bf bf3e f377 bcbe d65c 953e
00000300: 7127 0abf b76e 743e 024b 1fbf 0a66 c03e
00000310: 9c69 63be c94e de3e ddc6 2ebf 9a13 f63e
00000320: fdc9 e4be 4bde dbbe c6bb 083e c2d8 15bf
00000330: bcd6 03bf 3ea4 09bf a16c 113f e6cb f23e
00000340: ad9a b73e 22b7 fb3e 5298 fabe f7fa bcbe
00000350: 2c8b 303f 1aa2 32bf 3aaf bbbe b99c c23e
00000360: d934 e53e fc81 123f 6da0 8d3e 6260 bdbe
00000370: 63cf c53e f63e dabe afcf e9be d7bc b83e
00000380: dbee 27bf 5338 a73e ed1b 023d ec04 56be
00000390: 001c 15be 1577 cc3e 82b8 91be b996 0d3e
000003a0: 3438 a03d 8ed0 e7be 6059 173f d2a6 913e
000003b0: 85d8 b4be 4e2a b7be fc64 833e 85ac 12bf
000003c0: ecf3 b63e 1abb 9c3e 2500 f43e 7dd5 fbbe
000003d0: 6a69 393d 390b d23e 7873 a43e 8e47 8b3e
000003e0: de2f 543e 4145 e3be c249 c63e bc32 a1be
000003f0: 61fc 8c3e 0558 ddbe 89b6 1abf 5a05 f53e
0.008385558 -0.22434393 0.20030823 0.09321425 0.5785504 0.015082828 -0.2955362 0.0070290724
-0.56952465 -0.4947449 -0.28177255 -0.62963617 -0.41495413 -0.4456877 -0.4776354 -0.066026084
-0.046180632 0.5636141 0.031327635 0.117216244 -0.24281713 -0.5226196 -0.6275055 0.4874284
-0.09499904 0.13409403 -0.044120636 0.22181222 -0.08577869 -0.5409749 -0.38561505 -0.005803007
-0.24316576 0.11778787 -0.24182205 0.36963856 0.01827773 0.078919776 -0.4053594 0.24544504
-0.605677 -0.62037504 -0.61369777 -0.58577824 -0.2770159 -0.41694203 -0.22184865 0.6304157
0.48087344 0.37466374 -0.43365666 -0.23722543 0.43978938 -0.5297666 -0.5511063 0.37382653
-0.15346718 0.6983999 -0.07943441 0.30757856 0.29326302 -0.44437128 0.04107758 -0.19751428
-0.38603893 -0.2886777 -0.09886336 0.061387114 0.4322948 -0.25688475 -0.56220067 0.22397377
-0.6169737 -0.69209963 -0.6418418 -0.63462585 -0.25872082 -0.45637742 -0.24155559 0.46824136
-0.29349452 0.4557278 -0.46827137 0.013403545 0.35254717 -0.5728756 -0.30971587 0.32110956
0.25068763 0.29553396 -0.5837947 0.1106464 -0.19721888 -0.5217161 -0.3310816 0.304753
-0.49030188 -0.41166443 -0.43268088 0.5636765 0.35474426 0.5334074 -0.5857421 0.0960369
-0.37054515 -0.45381796 -0.3198091 -0.33071414 0.29473573 -0.693232 0.3000587 0.5663792
-0.4226211 0.40231448 -0.60334533 -0.045942232 0.6777772 -0.45497963 -0.5356072 0.6000793
0.46305075 0.66603416 -0.5710173 0.041787386 -0.22256199 -0.5818449 0.15883085 0.07553093
-0.7789961 0.45002702 -0.11025353 0.040584862 -0.004465993 0.47923705 -0.5875521 0.2898922
-0.48249182 -0.71074766 0.379035 -0.29242155 -0.49276957 -0.5063263 0.6263465 0.068568975
0.65825164 0.64883745 0.05971767 -0.5179461 0.4137428 -0.543678 -0.3592732 0.56601715
0.32850072 0.43531892 0.55664396 -0.046604197 0.43102643 -0.5743468 -0.56047297 0.67836213
-0.4065473 0.25830153 -0.016669057 -0.16040486 -0.1789179 0.49627906 -0.2620645 0.3843421
0.16334938 -0.6217591 0.2994599 0.2196598 -0.482914 0.21913935 0.499755 -0.49175307
0.39879256 0.11449243 0.4372466 -0.39111683 -0.032121424 0.30267143 0.41173783 -0.48283312
0.45357174 -0.20197299 0.41462812 -0.4398448 0.5070983 0.37450898 -0.36810264 0.2917239
-0.5396643 0.2387036 -0.6222383 0.3757785 -0.22208256 0.43419483 -0.6827219 0.4806183
-0.44685355 -0.42943034 0.1335288 -0.5853387 -0.51499534 -0.5376624 0.5680638 0.47421187
0.35860196 0.49163157 -0.48944336 -0.3691022 0.6896236 -0.697786 -0.36657125 0.38010195
0.44766882 0.5722959 0.27661458 -0.36987597 0.38634786 -0.4262616 -0.45666263 0.36081573
-0.6559884 0.3266016 0.031764913 -0.20900315 -0.14561462 0.39934602 -0.2846108 0.13827027
0.0782322 -0.45276302 0.5912075 0.28447586 -0.3532144 -0.35774463 0.25662982 -0.57294494
0.35732973 0.30611497 0.4765636 -0.49186316 0.045266546 0.41024187 0.32119346 0.2720303
0.20721385 -0.44388774 0.38728148 -0.3148402 0.275363 -0.43231216 -0.60434777 0.47855645

bias_ih_l1 f4 [128]
00000000: ed62 a9be 520f bebe f74a bebe 334b 2dbf
00000010: 9de8 04bf c2f7 d0be b9e8 0bbf 455c 1fbf
00000020: 6752 5bbe 4b61 2cbf 87dd 1ebf c1b3 41be
00000030: 2d5e 10bf cd53 f0be 6673 1dbf d941 9fbe
00000040: 44a0 0abf c809 1abf 1da9 aabe c1f4 dbbe
00000050: a221 58be dbe9 b1be 95e5 f4be a1cc 10bf
00000060: b040 24bf 66fa adbe 4e0e aabe b0d8 34bf
00000070: 3d13 96be 001e 02bf 5504 68be 5a2a 08bf
00000080: 0b00 7bbe 5ce5 a2be a203 e7be 3508 26bf
00000090: ab26 28bf 6e98 c7be 8da9 d1be 0960 26bf
000000a0: 7d90 75be d0a2 09bf c4ec b0be ac0e 87be
000000b0: ebf2 0cbf bc4f d2be a402 2bbf 1a9e 16bf
000000c0: fa9c 8abe 3894 a3be 2cee 0dbf d66f 15bf
000000d0: e5cd 98be 475f f4be 3a56 a2be 67bf b2be
000000e0: f5bc f5be c046 01bf 38db e4be 168a 41bf
000000f0: e705 cfbe 2858 c0be d18d eabe f014 e8be
00000100: 3500 a7bd 3bec b23e dc91 9abe 79ff c33e
00000110: 087d 19bd 6b1d 9f3e 85fb 993e b419 be3d
00000120: 3550 afbd ee7c 143c 4522 653e 77d2 b9bd
00000130: 4718 883e a778 913e 48c7 c03e 52e5 333e
00000140: 7e7a 3a3e 3651 033e e5f7 c93d 9c44 0c3e
00000150: 1169 523e b589 8e3e 4a30 c2bc ba5a 19be
00000160: 3f08 ad3c e525 0e3e 2801 a73e b631 3bbd
00000170: 1a41 053e 628a 833e a8b7 c83e f345 d0bd
00000180: be40 a4be 0956 9ebe 06ef fcbe a07e 23bf
00000190: 1693 4abf 9183 edbe cd46 b9be 0bb9 debe
000001a0: 80a7 fcbe bf3d 42bf 83e3 8fbe f38e 75be
000001b0: 82f8 14bf 115d b1be a6a0 14bf 1db0 98be
000001c0: 1591 ecbe 0775 dfbe 8913 e8be 5867 2bbf
000001d0: 6d1c 69be 59ea 14bf e62c fbbe 63c8 adbe
000001e0: f1e4 07bf 422e c7be 1ea7 21bf 526b 21bf
000001f0: 1e0c c7be ceee 1abf 6787 0dbf da04 ccbe
-0.33083287 -0.37121063 -0.3716657 -0.6769287 -0.5191744 -0.40814024 -0.5465198 -0.6225017
-0.21418153 -0.6733596 -0.62056774 -0.18916227 -0.563937 -0.46938935 -0.6150421 -0.31104925
-0.54150796 -0.60171175 -0.33332148 -0.4296017 -0.2110658 -0.3474873 -0.47831407 -0.5656224
-0.64161205 -0.339801 -0.3321404 -0.7064314 -0.29311553 -0.50827026 -0.22657903 -0.53189623
-0.24511735 -0.31815612 -0.4511996 -0.6485627 -0.65684 -0.38983482 -0.4094967 -0.6499029
-0.23980899 -0.5376406 -0.34555638 -0.2637838 -0.55058163 -0.41076458 -0.66800904 -0.58834994
-0.2707289 -0.3194902 -0.55441546 -0.58373773 -0.29844585 -0.4772894 -0.3170641 -0.34911653
-0.47995725 -0.5049858 -0.446985 -0.7560133 -0.4043419 -0.37567258 -0.45811322 -0.45328474
-0.08154336 0.34945855 -0.30189407 0.38280848 -0.037472755 0.31077132 0.30074707 0.09282246
-0.0856022 0.009062989 0.22376354 -0.09073346 0.26581022 0.28412363 0.3765204 0.17567948
0.1821079 0.12823948 0.09861735 0.13698047 0.20547892 0.27839437 -0.023704667 -0.14976016
0.021122096 0.13881643 0.3261807 -0.045701705 0.13013116 0.25691515 0.3920262 -0.10169592
-0.32080644 -0.30925015 -0.4940111 -0.6386509 -0.79130685 -0.4638944 -0.3618683 -0.43500552
-0.49346542 -0.7587547 -0.28103265 -0.23980312 -0.5819169 -0.34641317 -0.5805763 -0.29821864
-0.4620444 -0.43643972 -0.45327404 -0.66954565 -0.2276475 -0.58170086 -0.49057692 -0.33941945
-0.5308371 -0.3890248 -0.63145626 -0.6305438 -0.38876432 -0.6052064 -0.5528473 -0.3984745

bias_hh_l1 f4 [128]
00000000: 35f6 0ebf dbde 85be 36fe 2cbf c915 fbbe
00000010: feee 3bbf 3ee4 00bf 2df7 18bf c6f7 f5be
00000020: 4d6e c2be 9e0d f2be b691 9dbe ef22 92be
00000030: dcab dabe a9e9 09bf 7038 15bf 0092 f6be
00000040: e197 e9be 10ff d1be 70a6 15bf 4797 dfbe
00000050: b6c0 78be b748 00bf 3afb 16bf cfac 05bf
00000060: 1494 1fbf 1b38 76be c9ae bdbe 0038 f5be
00000070: 7f48 16bf ee21 f4be 4374 43be b28b a8be
00000080: 6d56 d6be eed0 acbe 5a33 a5be 3937 25bf
00000090: ff51 07bf fc39 cdbe a70e 14bf 286d fabe
000000a0: 3f30 c1be 9031 e3be 00c3 0dbf 57ab 42bd
000000b0: 025a e5be e27a 8bbe 35e1 f9be 52a4 12bf
000000c0: 94fa 0bbf aa9a b5be dd7b 04bf 2b3c 28bf
000000d0: d804 9fbe a2b2 a3be ab9e 78be 2525 2bbf
000000e0: a603 28bf 7c1d dabe 84ff f6be 1fa7 f2be
000000f0: f88f fcbe 9fba 8ebe d535 05bf a923 01bf
00000100: 533f 73bd eb59 a43e c08f 8bbe bfc2 7e3e
00000110: 118b 38be c84e 0f3e 0f9d 3d3e 99c1 b63c
00000120: d793 bf3d 4cf9 3a3d 864f b83e bd02 043e
00000130: fa99 1a3d ebc6 303e 616c bd3e 8994 b13e
00000140: 6aff 703c ce5c e63d b213 483e 6d6d db3d
00000150: d1af c73b e52c cc3e dfb8 26be 0f8c 8c3c
00000160: bef2 9f3d 6f8d 903e 6d6d 7e3e d388 8e3e
00000170: 8874 05bd dff3 963e c17b 2d3e 7add 3c3d
00000180: f07f 87be 0863 c9be 5af6 b5be db8a 03bf
00000190: b340 2fbf 2ef0 1abf 165a cabe 84c2 cebe
000001a0: 1f34 12bf 453b 3abf 0718 dbbe 74f6 20be
000001b0: 2064 fabe 7d32 c1be af14 f4be 95ae 0ebf
000001c0: d55a cfbe 5569 17bf ff68 06bf 23c6 0abf
000001d0: 228e d5be 340f e3be 68dc 93be 3229 2ebf
000001e0: f8d7 fdbe 1817 fdbe 5419 17bf 72bc 02bf
000001f0: 62e9 a9be fc2a ecbe 8fce a2be 46e7 b1be
-0.5584443 -0.26146588 -0.67575395 -0.49040058 -0.7341155 -0.5034827 -0.5975216 -0.480406
-0.37974778 -0.47276014 -0.3077523 -0.28542277 -0.42709243 -0.5387216 -0.5828924 -0.48158264
-0.45623687 -0.4101491 -0.5845709 -0.43670103 -0.24292263 -0.50110954 -0.5897709 -0.5221681
-0.62335324 -0.2404484 -0.37047413 -0.47894287 -0.5870437 -0.47682136 -0.19087319 -0.3291908
-0.41862813 -0.3375315 -0.3226574 -0.6453739 -0.5285949 -0.400833 -0.5783486 -0.48911405
-0.3773212 -0.4437375 -0.5537567 -0.047526684 -0.44795233 -0.2724219 -0.48804632 -0.5728198
-0.54679227 -0.35469562 -0.517515 -0.6571681 -0.31058383 -0.31972224 -0.24279277 -0.66853553
-0.6563057 -0.4260062 -0.48241818 -0.47393128 -0.4932859 -0.27876756 -0.52035266 -0.5044504
-0.059386563 0.32099852 -0.2725811 0.24878977 -0.180218 0.13994896 0.18516944 0.022309111
0.0935437 0.045647904 0.35998172 0.1289167 0.0377445 0.17263381 0.3699675 0.34683636
0.014709333 0.1124817 0.19538763 0.10714231 0.006093957 0.39878002 -0.1628146 0.017156629
0.07809971 0.28232905 0.2484643 0.27838764 -0.032581836 0.29482934 0.1694174 0.046109654
-0.26464796 -0.39333367 -0.35539514 -0.5138375 -0.684581 -0.60522735 -0.39521855 -0.4038278
-0.5711078 -0.7274669 -0.4279177 -0.15719014 -0.48904514 -0.37733832 -0.4767203 -0.5573514
-0.40498987 -0.591451 -0.5250396 -0.5420858 -0.4171 -0.44347537 -0.28879094 -0.6803161
-0.49578834 -0.49431682 -0.5902302 -0.51068795 -0.3318587 -0.46126544 -0.31798217 -0.3474676

weight f4 [32, 32]
00000000: 67fb 0dbf 91af b6be 4350 2d3f f681 39bf
00000010: b8b3 ab3e 5f60 a9bd cf13 5abe f833 f3be
00000020: 31d0 2d3f 7667 083e 75ef 9a3d 4377 da3e
00000030: e2ce 6b3d e91c a33e 0dbc c4be 4c6c 1ebf
00000040: 0c50 ddbd 6b7e 29bf 573f 9f3e 5208 88bd
00000050: 8f42 2cbf f243 453d 5f3f 203f 6042 8ebb
00000060: 0dcc 96be 02fb 38bf 5c19 06be cb55 5dbe
00000070: 2786 57be 3f12 743e 862d 33bf 85f0 a93e
00000080: 4939 b73e b42c 343e 076e c43e 1c5f cb3e
00000090: a351 523b 6de5 df3e 2124 07bf 473e 4f3e
000000a0: ab4f 13bf c458 393e 4c25 e23e f458 19be
000000b0: 3e58 83be 0404 28bf 1688 233f 54fd bb3e
000000c0: 4466 063f 70ce 023f d322 193f d407 0dbf
000000d0: 29bc c83e a3ad b23e a93c f23e d74f a13e
000000e0: 7e0b 8cbe c894 953e ddaa 013f e169 b8be
000000f0: 9de0 b93e 3099 a63e a21a 3a3e 6fbb 163f
00000100: da72 c4bd 19a0 c03e 6156 dabe c3a7 87be
00000110: a605 2abe c626 ea3b 4775 bebe c2c9 4cbe
00000120: 33d3 c9be c331 23bf c8db b33e b94a ebbe
00000130: 323f b03e 6216 f4be 5fcd 8d3e e9c2 14be
00000140: 1da3 943e 5d08 d13e 54b3 32be 3192 ef3e
00000150: 1d91 40bd 79e8 853e e323 cdbe 4bf3 c33d
00000160: 88bb bdbe 3791 cfbe d289 7ebe 36e3 e9be
00000170: 67e4 ae3e 761e 08bf 7a4b ce3c 9285 9abd
00000180: 7a3b 27bf 1abd 023f 63a1 6dbd 1a04 11bf
00000190: 1476 ddbe 0bfb e4be c243 be3e d771 913e
000001a0: e97f b43e 8b93 77be 3264 143f 45a4 0f3d
000001b0: 9e13 193e 237d d13e 8337 273e 3342 0fbf
000001c0: e45d d43e fc66 7dbe 2b81 9b3e 3cb2 eebe
000001d0: c2aa e7be 8255 ff3e aa58 173e 8817 19bf
000001e0: 627a 03bf 5570 fcbe c89d b43e ec50 1abf
000001f0: 16f0 f83e 830f cf3e e0ba 48be a385 133e
00000200: 881b cfbe 8913 0e3e e42e 05bf a190 20bf
00000210: 8026 dc3c 30b6 52bd c8ba 79bd 9007 20bc
00000220: 7a02 74bd aa0a e1be ec14 413d 425a 24be
00000230: 12f5 f5be ea05 bc3d 107f 803d 39ae 00bf
00000240: 48ef 16bf 3832 3cbd 48a4 0cbe 08b6 373d
00000250: bec7 17be ea11 de3d 709f 23bc 1322 183e
00000260: 8899 523d de1f 01bf 4012 d93c 7277 ca3d
00000270: f0d7 763d 544f f2be 5b19 01bf 00f0 92ba
00000280: baa4 0fbf d3ac b7be 82bc 8bbd 0b95 3bbf
00000290: f9c2 c03c 04bb a23d 0110 9b3d f343 10bf
000002a0: 19ff 22bf 5de3 86be 7475 d8be 6ecf 09be
000002b0: 1660 6c3b ac82 28bf 960a 32bf a014 29bf
000002c0: 5f18 b1be cbb1 ed3e 8858 b1be c78e 003f
000002d0: 3881 e13e 9fcf 04bf fde5 10bf 2588 953e
000002e0: c46e 9b3e 4cb7 b5be 11e2 ecbe e225 1a3f
000002f0: 9a42 eabe c0f0 12bf 065a 3bbf 7bcb bbbd
00000300: 6999 c9be f67b f73e 991f 253e 99f1 d1be
00000310: 1da2 b0be 471a 093f c644 d9be b887 fb3e
00000320: 8db7 22bf ac62 07bf 41b9 97be f21a 4ebe
00000330: 1df1 08bf ac0b dbbe eb88 d53e e316 0abf
00000340: 171e 103f a2a2 ea3e cb7f 8dbd ec7b 87be
00000350: 1905 2b3f 9792 c3be 5c4e 90bc cb7b 243f
00000360: 81af fe3e ca76 16bf 4ede cf3e f9ed 5abe
00000370: aec2 ad3e 97e6 01bf ddd9 fdbe b686 ac3e
00000380: 7665 d0be 2b12 c23e 4033 1e3d 8684 04bf
00000390: 7c89 1fbf 9472 af3e 6a42 e6be 8603 2b3f
000003a0: 6e90 d3be 80fe 00bf 8ac8 a83e 1684 e1be
000003b0: c580 bbbe fd03 18bf 14f8 ef3e 9c1d 8cbe
000003c0: 95ca 2e3f 5e94 123f 4447 c73e d0d2 0abf
000003d0: b394 1e3f c09a bdbe 8a97 a73e e930 cd3e
000003e0: e460 aabe faa2 b0be 00cb e13e fe38 09bf
000003f0: 7978 293f 5a5a efbe d18e f0be 9c2c a73e
-0.55461735 -0.35680822 0.67700595 -0.7246393 0.33535552 -0.082703345 -0.21296619 -0.47500587
0.678958 0.13320717 0.07565204 0.42669114 0.057570346 0.31857994 -0.3842472 -0.61884
-0.10806283 -0.66208524 0.31103012 -0.06642212 -0.6728906 0.0481605 0.62596697 -0.0043414086
-0.29452553 -0.7225801 -0.13095611 -0.21614759 -0.21047269 0.23835085 -0.6999134 0.33191314
0.35785893 0.17595178 0.38365194 0.39721 0.0032092116 0.43729725 -0.52789503 0.202386
-0.5754344 0.18100268 0.4416908 -0.14975339 -0.2565326 -0.6563113 0.63879526 0.36716712
0.52499795 0.5109625 0.5981876 -0.5509007 0.39206055 0.348981 0.47311905 0.31506225
-0.27352518 0.29215074 0.5065134 -0.3601828 0.3630418 0.32538748 0.18174222 0.5887975
-0.09592219 0.37622145 -0.42644027 -0.2649518 -0.16603717 0.0071457354 -0.3719885 -0.1999884
-0.39418945 -0.63747805 0.35128617 -0.45955446 0.34423214 -0.47673327 0.27695748 -0.14527477
0.29030696 0.40826693 -0.17451221 0.46791223 -0.04701339 0.26153925 -0.40066442 0.09567889
-0.37057137 -0.40540478 -0.24857262 -0.4568116 0.34158632 -0.5317148 0.025182474 -0.07545008
-0.6532513 0.51069796 -0.05801524 -0.56646883 -0.4325415 -0.4472278 0.3716107 0.28407165
0.35253838 -0.24177377 0.57965386 0.03506877 0.1494889 0.40915784 0.1632977 -0.55960387
0.41477883 -0.24746317 0.30371985 -0.46620357 -0.45247465 0.49869925 0.14779916 -0.5980153
-0.51358616 -0.49304453 0.35276628 -0.60279727 0.4862067 0.40441522 -0.19602537 0.14406447
-0.40450692 0.1387464 -0.52024674 -0.62720686 0.026873827 -0.05144328 -0.060969144 -0.009767428
-0.059572674 -0.4395345 0.047139093 -0.16050056 -0.48038536 0.091808155 0.06274235 -0.5026584
-0.58958864 -0.04594633 -0.13734543 0.044851333 -0.1482229 0.108432606 -0.009986743 0.14856748
0.05141595 -0.5043925 0.02649796 0.09886064 0.060264528 -0.47326148 -0.50429314 -0.0011210442
-0.5611073 -0.35874042 -0.068230644 -0.73274297 0.02353047 0.07945827 0.07571412 -0.5635368
-0.636705 -0.2634534 -0.4227711 -0.13458034 0.0036068014 -0.6582439 -0.695474 -0.66047096
-0.34588906 0.46424708 -0.34637856 0.5021786 0.440439 -0.51879305 -0.56600934 0.29205433
0.30357945 -0.35491407 -0.46266225 0.60214055 -0.45753938 -0.57398605 -0.7318424 -0.0916967
-0.39374855 0.48336762 0.16125335 -0.41004637 -0.34498683 0.5355572 -0.42435282 0.49126983
-0.63561326 -0.52884936 -0.29633525 -0.20127466 -0.5349291 -0.42782342 0.41706023 -0.5394117
0.56295913 0.45827204 -0.0690914 -0.26461732 0.66804653 -0.38197777 -0.01761549 0.64251393
0.49743274 -0.5877501 0.40599293 -0.21379842 0.3393759 -0.5074248 -0.4958028 0.33696526
-0.4070241 0.37904486 0.038623095 -0.51764715 -0.6231916 0.34267104 -0.44972545 0.6680225
-0.4132113 -0.50388336 0.329655 -0.44046086 -0.3662168 -0.59381086 0.46868956 -0.2736634
0.68277866 0.5725764 0.3892156 -0.54227924 0.61945647 -0.37032127 0.32732803 0.40076378
-0.33277047 -0.3449934 0.4410019 -0.5360259 0.6619945 -0.4674862 -0.4698396 0.32651222

bias f4 [32]
00000000: 37d3 023e 074a 02be dfd8 cebe 8bae c23e
00000010: 890e 11bf 6f80 1b3e f20a c7be 65ee 20bf
00000020: 9075 04bf 3c46 773e 71f8 b5be d9ee 443e
00000030: e6d7 e5be fab9 0fbf 902d b3be ad0e 0e3f
00000040: 574e 81be 3404 03bf 19c0 dabe 31af 25bf
00000050: f683 8ebe 0086 febe 624f 30bf a66b fabe
00000060: ec27 25bf 0c00 123f 70ed 0ebf ce18 b03e
00000070: fec1 23bf a514 923d 14e6 f1bc 41cc b6be
0.12775885 -0.12723552 -0.40399835 0.3802379 -0.56662804 0.15185712 -0.38875538 -0.6286376
-0.51741886 0.24147886 -0.35541108 0.19231738 -0.4489128 -0.5614315 -0.349957 0.55491143
-0.2525508 -0.5117829 -0.42724684 -0.64720446 -0.27835053 -0.4971161 -0.6887113 -0.48910254
-0.6451404 0.5703132 -0.5583105 0.34393924 -0.63967884 0.07132844 -0.029528655 -0.35702708

weight f4 [1, 32]
00000000: 6fce 693e a388 2fbe 2fe3 a43e 6ea4 a03e
00000010: b069 b6be c408 063f 86d9 c3be c9f9 c93e
00000020: 6e24 a83e 1b9a dfbd 8598 d03d 192a bbbe
00000030: 6ae9 cfbd 4851 d7be 3f6b f13d 83ab 503e
00000040: f472 afbe 5861 783d 9981 e8be 8afe f63e
00000050: 0b4c 80bb 1801 debe 847a fe3e c2ce b33e
00000060: 2d69 12bf c60b 923e 58a6 e0be 1d3d 6abe
00000070: 250f b23e c010 5d3d 3315 273e aa05 d43c
0.22832654 -0.17141967 0.32204577 0.3137545 -0.35627508 0.52357125 -0.38251895 0.39448383
0.32840294 -0.10918065 0.10185341 -0.36555555 -0.10151942 -0.420542 0.11788034 0.20377927
-0.3426739 0.06063971 -0.45411375 0.48241073 -0.003915315 -0.4336021 0.49702847 0.3511868
-0.57191736 0.28524607 -0.4387691 -0.22874875 0.3477718 0.053971052 0.1631668 0.025881607
