models/lstm_cpu_temperature_predicter.onnx (onnx, 222860 bytes, 9 tensors)

linear.weight f4 [64, 64]
00000000: 8b71 c93e 39f2 12bf 9947 0e3f 0a0c 023f
00000010: df6e 213f 413c 29bf bb19 413f bde6 1dbf
00000020: bceb 113f 01d0 59bf 914e cb3e 2fae 013f
00000030: 42ce 46bf 62e8 0cbf 040d 0f3f 5ab4 2c3f
00000040: 83c6 433f 4bea ca3e 0b16 20bf fc63 9b3e
00000050: 391d 45bf e9c4 25bf 8902 1a3f e2b3 54bf
00000060: e281 373f 60e9 293f b037 3f3f 7c9b 0abf
00000070: bef6 dcbd a698 40bf 82fb 37bf f9d2 2bbf
00000080: 6f8a 3bbf 7883 39bf c668 3cbf a08f 46bf
00000090: 276d 123f 5501 33bf 10bd 38bf 16eb 23bf
000000a0: 58fe 233f 6ec5 80be b4d3 5b3f 25ae 3bbf
000000b0: 9789 54bf b66a 3abf 0834 25bf fa66 53bf
000000c0: 8288 a73e 3f7a 283f 3e72 95be bcbf 2b3f
000000d0: fc93 ce3e e875 253f 6210 17bf 3e91 3abf
000000e0: 1f35 39bf 580e 14bf 6bb8 2b3f ce1d 54bf
000000f0: 37a8 23bf 2a0f 2a3f feae 14bf 313e 233f
00000100: 700d 353f 5f89 37bf 9603 0e3f b6fb 243f
00000110: f739 5cbe d3fe 253f 5d8a 06bf c0b9 593f
00000120: c5df 393f 4260 a43e 1231 f7be dda2 153f
00000130: f7dc 0a3f aae4 3f3f 22da b6be 8417 2b3f
00000140: aea9 103f a712 aebe 5356 19bf 7a8e 0e3f
00000150: 383e 373f 0cc9 48bf d4ce 22bf 6fe9 4cbf
00000160: 1235 dcbe 65cd e9be 1275 ce3e ea70 2dbf
00000170: 3e9e 973d 2136 01bf 844e 2b3f cfa2 03bf
00000180: 7b37 4c3f adab 553f e77d 2fbf 4b1f 9d3e
00000190: 4e12 313f 5943 3dbf 78e3 4abf 7dfe 1f3f
000001a0: 8425 1a3f 4b23 d93e 9b85 08bf c6d1 36bf
000001b0: 6401 21bf be60 0dbf 2ad6 1b3f d246 263f
000001c0: 514c 183f 9428 21bf 046b 603f 12ed 543f
000001d0: a7d0 17bf 5186 4abf f390 3abf 18c2 e83e
000001e0: bb98 293f 65a9 50bf c69b 2c3f a5ab 28bf
000001f0: 0d28 32bf f5f6 433f 1062 8bbe 01cc 1ebf
00000200: 62dc 0bbf 40c4 57bf 940f 583f ee2c 493f
00000210: 9693 343f 1012 40bf 90b5 2d3f 2a41 37bf
00000220: e24c 3fbf 1e33 663f 53c6 3f3f 550e 36bf
00000230: 2caa 373f baaf 5ebf de52 2e3f 52e4 253f
00000240: ce46 60bf ad3f 45bf 7769 24bf 6a0e 313f
00000250: 306a 433f bfe7 52bf 15a3 333f a6d2 55bf
00000260: abdd 3c3f faa3 4e3f d282 283f 8520 25bf
00000270: ca8b 54bf bbd2 36bf a5e2 30bf 16d3 3fbf
00000280: 63b7 3b3f 6013 26bf 3977 463f f067 3c3f
00000290: cb4c 493f f4cd 34bf 1434 5abf 189e 253f
000002a0: d80e 623f 1700 43bf a51a 39bf 6b8f 2cbf
000002b0: 817b 2bbf 84dd 303f 46dc 29bf 8dd0 413f
000002c0: ab6c 36bf 2c1a 613f f9ce 313f 3a37 173f
000002d0: 5c5e 4bbf 4592 60bf 1805 63bf 97ae 38bf
000002e0: 26bf 463f 9587 4abf b6a6 4c3f 5493 47bf
000002f0: 7cdd 30bf 8c3e 643f 8edd 36bf a7a3 5abf
00000300: f218 2d3f b657 25bf 7b6a 4c3f a61b debe
00000310: 5e45 acbe b95a 2ebf 1c94 223f 667c 283f
00000320: 935c 23bf 46c8 973e 244d fe3e bc03 3fbf
00000330: e401 c03e 5bed 383f 322e 0d3f 00cf 543f
00000340: 272a 393f ac25 063f 7c37 103f 9749 1a3f
00000350: ccea 243f ed5f 15bf a454 b2be 7c4d 59bf
00000360: cebe 433f 173d edbe a237 313f 5368 3fbf
00000370: 5293 4a3f f45c 95be 72ab efbe f3ee 48bf
00000380: ba33 0e3f 1a3c 3ebf af68 e0be a324 353d
00000390: d585 1a3d 2893 f43e 02da 54bf 2289 31bf
000003a0: 60df 4dbf d124 94be eebe 093f e655 21bf
000003b0: e975 b3bd 1425 9abe 2209 08bf 85e9 433f
000003c0: 1989 523e 7474 e43e 5425 3f3f 0613 063f
000003d0: f20e 483f cc53 e6be 682e 2cbf eadf 5cbf
000003e0: 40ec 39bf 64a5 51bf 1224 073f d1b3 50bf
000003f0: efb6 263f ba9a 553f 78c9 943e ade1 443f
0.3934444 -0.5740085 0.55578 0.5079962 0.630598 -0.66107565 0.75429887 -0.61680204
0.5700033 -0.85083014 0.3970838 0.5065641 -0.77658474 -0.5504209 0.55879235 0.67462695
0.7647478 0.39631876 -0.62533635 0.3034972 -0.76997715 -0.64753586 0.6016012 -0.8308698
0.7168256 0.66371727 0.7469435 -0.541435 -0.1078925 -0.75232923 -0.71868145 -0.67118794
-0.7325811 -0.7246623 -0.7359737 -0.77562904 0.57197803 -0.6992391 -0.72163486 -0.6403059
0.6405997 -0.25150627 0.8586991 -0.733126 -0.83022445 -0.7281908 -0.6453252 -0.82579005
0.32721335 0.6581153 -0.29188722 0.6708944 0.40347278 0.64633036 -0.59009373 -0.7287787
-0.7234668 -0.57834387 0.67078274 -0.8285798 -0.6392855 0.6642939 -0.58079517 0.6376677
0.7072363 -0.71693987 0.5547422 0.6444658 -0.21506487 0.64841956 -0.52554876 0.85049057
0.7260707 0.3210469 -0.48279625 0.58451635 0.54243416 0.7495829 -0.35713297 0.66832757
0.5650891 -0.33998606 -0.59897345 0.5568615 0.71579313 -0.78431773 -0.63596845 -0.8004369
-0.4300924 -0.45664516 0.40323693 -0.6775042 0.07403229 -0.5047322 0.6691668 -0.514203
0.79772156 0.8346508 -0.68551487 0.30687937 0.69168556 -0.7393089 -0.7925334 0.62497693
0.60213494 0.4240974 -0.53328866 -0.7141384 -0.62892747 -0.5522574 0.60873663 0.64951813
0.5949145 -0.6295254 0.8766329 0.8317424 -0.59302753 -0.791112 -0.72877425 0.45460582
0.66248673 -0.81508476 0.6742519 -0.6588691 -0.6959236 0.765487 -0.27223253 -0.62030035
-0.5463315 -0.8428383 0.8439877 0.7858418 0.705377 -0.7502756 0.6785517 -0.7158381
-0.7472669 0.8992175 0.74911994 -0.7111562 0.71744037 -0.8698689 0.68095195 0.64801514
-0.8760804 -0.77050287 -0.64223427 0.6916262 0.76333904 -0.82384866 0.7017072 -0.8352455
0.7377574 0.8071896 0.65824616 -0.64502746 -0.830258 -0.714153 -0.6909583 -0.74931467
0.733267 -0.64873314 0.7752567 0.73596096 0.786328 -0.7062676 -0.85235715 0.64694357
0.883039 -0.7617201 -0.7230628 -0.6740634 -0.66985327 0.69088006 -0.66351736 0.7570885
-0.71259564 0.8793056 0.6945644 0.59068644 -0.79440856 -0.8772319 -0.8867965 -0.721414
0.7763542 -0.7911313 0.7994188 -0.7795918 -0.6908796 0.8915794 -0.71431816 -0.85405964
0.6761619 -0.6458696 0.79849976 -0.4338047 -0.33646673 -0.6810718 0.63507247 0.65814817
-0.6381313 0.29644984 0.4966823 -0.74615073 0.37501442 0.72237176 0.55148613 0.83128357
0.72329944 0.5240123 0.5633466 0.6026854 0.6442077 -0.58349496 -0.348302 -0.84883857
0.7646302 -0.4633567 0.69225514 -0.7476856 0.7913104 -0.2917248 -0.4681049 -0.7848961
0.5554768 -0.7431046 -0.43829867 0.044224393 0.03772529 0.4776852 -0.83145154 -0.69349873
-0.8041897 -0.2893434 0.5380696 -0.63021696 -0.08762724 -0.30106413 -0.53138936 0.765282
0.20560111 0.44620097 0.74666333 0.5237278 0.78147805 -0.44985807 -0.6725831 -0.86279166
-0.72626114 -0.8189299 0.52789414 -0.8152438 0.65122885 0.8343922 0.29059958 0.76906854

linear.bias f4 [64]
00000000: d21f 61bf 4716 2ebf 331d 59bf d425 08bf
00000010: 203a e8be 9054 2dbf 41eb 60bf 9568 6ebf
00000020: 9800 29be e2f7 b43e 4e50 0bbf 7fed 1cbf
00000030: 0e01 41bf 245d 4fbf 4e16 09be 68aa 5fbf
00000040: c1ee 0d3e 3374 b43e 32d5 19bf d4fe 6fbf
00000050: e851 13bf 431e 83be 506b 123f 6a8d eabc
00000060: 6188 3fbf 5641 24bf fd26 62bf 7079 e8be
00000070: f54e 08bf 7fa0 e6be bf8a 7b3e f589 78bf
00000080: e30a 46bf 4db5 54bf ee22 bc3e 8ce2 00bf
00000090: 7f6e 5dbf ca5b 57bf 97dd 5e3f d497 63bf
000000a0: a376 28bf 375e d33e d135 09bf 71ca 3fbf
000000b0: 4dc3 3c3e 3edf e8be 0a41 37bf 4239 03bf
000000c0: 8521 2cbf ac21 05bf 3ce7 cebe 1aa6 73bf
000000d0: 7f92 6fbf 49c8 fb3e 4427 69bf 8420 373e
000000e0: e556 51bf 44c1 1abe 80b5 54bf 74b0 5abe
000000f0: 4a04 a4be c446 e9bc 305b 903e f1e8 3dbf
-0.8793918 -0.6800274 -0.8481018 -0.5318272 -0.45356846 -0.6770716 -0.8785897 -0.9312833
-0.16504133 0.3534537 -0.5441941 -0.6129989 -0.75392234 -0.81001496 -0.13387415 -0.87369394
0.13860609 0.35244903 -0.60090935 -0.9374821 -0.57546854 -0.25609025 0.57194996 -0.028631885
-0.7481747 -0.64162195 -0.8834074 -0.4540515 -0.5324548 -0.45044324 0.24564646 -0.97085506
-0.7736036 -0.83089143 0.367454 -0.50345683 -0.8649673 -0.84124434 0.8705687 -0.88903546
-0.65806025 0.41282818 -0.5359774 -0.74918276 0.18433876 -0.4548282 -0.71583617 -0.51259243
-0.67238647 -0.52004504 -0.40410793 -0.95175326 -0.9358291 0.49176243 -0.9107554 0.17883497
-0.81773216 -0.15112787 -0.8308945 -0.21356374 -0.32034522 -0.028476126 0.2819457 -0.74183565

linear2.weight f4 [1, 64]
00000000: 4746 3e3f 6e63 0fbf f554 2fbf 54c2 afbe
00000010: ae52 b4be d3a7 16bf b582 31bf 0e18 d1be
00000020: ac3b 033f 67d1 eabd d89f 03bf f8b0 e9be
00000030: 4d76 333f cbc6 dcbe db6d 3bbf 88dc 54bf
00000040: 3a53 debe fd5f 58be 0985 69be ca26 223f
00000050: 0f24 09bf 8e9d 823c 63e1 833e 031f c43e
00000060: f4d3 303f 6cd1 f83d 278b 0e3f fb98 abbe
00000070: ee97 d3be de1e d4be 8f98 57bd 5608 1cbf
00000080: 08a9 3cbf 1ab6 33bf ae44 32be 106f 38bc
00000090: 3728 2fbf c108 23bf 912e 0f3f e0e8 3dbf
000000a0: abc5 403f d651 b4be e895 833e 7fad e4be
000000b0: 7641 21bf 1ef1 e7be 8e40 e43e 5bc2 9cbd
000000c0: d67d d0be 7cbb e4be 8074 123f 93cf 36bf
000000d0: adcd 353f 8521 7abe a982 18bf 0cc6 a0be
000000e0: a793 eb3e e4ab a83e 0ebc 27bf f295 413f
000000f0: 478c a73e 9db0 f0bd 0b30 3e3f 9354 31bf
0.74325985 -0.5601109 -0.6848901 -0.34327948 -0.3521933 -0.5884983 -0.6934007 -0.40838665
0.5126293 -0.114657216 -0.5141578 -0.4564283 0.7010239 -0.43120417 -0.732145 -0.83149004
-0.43422872 -0.21130367 -0.22804655 0.6334044 -0.53570646 0.015944269 0.25757894 0.3830491
0.69073415 0.12149319 0.5568108 -0.33515152 -0.4132685 -0.414298 -0.052635726 -0.6095022
-0.7369542 -0.7019974 -0.17409012 -0.011256948 -0.6842074 -0.6368523 0.5593043 -0.74183464
0.7530162 -0.35218686 0.25700307 -0.44663617 -0.6299051 -0.45301145 0.445805 -0.07654258
-0.40721005 -0.4467429 0.57209015 -0.71410483 0.7101696 -0.24426849 -0.5957437 -0.31401098
0.46011087 0.32943642 -0.65521324 0.75619423 0.3272421 -0.11752436 0.7429206 -0.69269675

onnx::LSTM_188 f4 [1, 256, 1]
00000000: 34ba 22bf 3cab 4abe 6b00 453f 298d 32be
00000010: fd93 093f 6c23 263f ba01 b33e 6073 9b3d
00000020: 98f9 083d 487f 16bf b621 14be b29c 41be
00000030: e7c5 0c3f 1d4e 19be 4388 d73d f281 c63e
00000040: e11d 38be 45c2 dc3e 2638 bb3e 5146 14be
00000050: 1cab c53e d314 f13e 51e8 903e d0f3 fc3e
00000060: 190d fd3e b912 ae3d 0cb8 993e 7681 d63e
00000070: d4d7 a73e afe0 133f 619e d0bd 3c8d 863e
00000080: e915 10bf a037 f33e 7b45 323e 45d1 113f
00000090: c056 7b3e cb60 c03c 9ee2 1f3f 9e71 263f
000000a0: 3a6e 41be 935e 803d 7ecc 1dbe 5a9e e03e
000000b0: a9c8 18be 4ccd 123c a8c1 1b3f f591 dabd
000000c0: 204c 703e 696c 103f 7153 103f 9f17 993e
000000d0: f41b c13e a727 59bf 11bc 823e ccc2 b53e
000000e0: bf27 123e 09d1 1abf 822f 08bf ce87 2ebf
000000f0: 588e 513d 2fa4 483f 219a 1b3f 2a08 1d3f
00000100: a735 b13e 7a6a 4fbf 2b66 f53e a167 9abe
00000110: e89b 2d3f d739 313f f4f3 b43c 608c e7bb
00000120: b818 eabe 364f 2cbf d7fa ddbc 1b4e 253f
00000130: 2f67 423d 424e 94bd 7457 cf3e 7dbb f1be
00000140: a547 0f3f 5a89 a43e 292e 92be 565b d8be
00000150: 4a05 a33e 8dd9 893e c152 d9be b87b f3be
00000160: e3d4 813e 6f8a 823e 6d38 e63d ae53 123f
00000170: 9c7b 44be 5345 2c3f c554 39bf 9b36 323f
00000180: eb4b 65bf 0cf1 163f af2f 58bf ba71 e13e
00000190: 1b59 bd3e 8df9 fb3e 9617 d4be 0735 7d3e
000001a0: c7c5 1a3f a039 dcbe 24cc 82be 45ff 153f
000001b0: 2b67 793e cb5e 09be a71e 033f ecf0 3bbe
000001c0: a46c 4fbf c8ca 4ebe c475 a43e 3ac4 fbbe
000001d0: fea6 833e 6776 74bf 6833 3abf e92c f8be
000001e0: 49b0 98be 73be 56bf 07c3 56bf c276 6ebf
000001f0: 1d8d 853e 4fa0 893e 1125 fd3e 0ac1 073f
00000200: 187c a83e 1b15 64bf 67d8 363f ca56 0abf
00000210: aebb 1d3f 123f 6f3f cb92 69bf 63ad 5bbf
00000220: 33b9 29bf 815a 023d 318f 50bf d03f 233f
00000230: f163 24bf 5e43 e2be ada6 e2be 3c1e 3abf
00000240: b6c6 093f 3b20 41bf 76fa 61bf 4038 35be
00000250: 1e88 5a3f 7626 3bbf 6345 44bf d723 56bf
00000260: ee41 223f dca3 f13e d0b5 5cbf 5aae c03d
00000270: a47c ffbe 5a88 483f 62ba 7bbf d3b8 583f
00000280: 08e0 b4be 9191 5b3f e72d 5dbf 5dca 61bf
00000290: 0439 8d3e c056 1bbf f531 61bf ca25 2bbf
000002a0: ffc3 153f 4693 29bf b02c 6cbf 7fc2 2d3f
000002b0: 8d03 013f 218f 14bf 08b9 283f 2e72 05bf
000002c0: af11 6cbf 1a76 0ebf 67a3 553f 6788 27bf
000002d0: 633f 5dbf 2844 5fbf 9895 62bf f001 41bf
000002e0: 53cd f9be 4812 5abf 7977 68bf 5759 3fbf
000002f0: 215a 6b3f 9968 213f 5755 8ebc a31a ba3e
00000300: 5497 f53e 07cd 6abf 8389 623f 227f 723f
00000310: 5207 50bf c495 6dbf cd2b 4fbf ae0b 693f
00000320: 5aeb 62bf 093b 59bf 944b 1cbf cb5f 2f3f
00000330: 78b6 543f 108e 6abf da9c 20bf ea92 77bf
00000340: 125b 65be d751 94be 3013 55bf 3096 38bf
00000350: 0d4a 73bf 334a 53bf 0f7f 64bf bbcc e9be
00000360: f133 66bf dc79 643f a3bc 61bf 9e20 4d3f
00000370: 1092 6d3f be3f 693f c55c 69bf 2d56 5d3f
00000380: 73f6 55bf 66ce 653f a934 6c3f 1bd2 463f
00000390: 421a 643f 0f42 2f3e da6c 65bf ad13 3e3f
000003a0: 3145 fc3e 03fc 513f b78b 65bf 4859 57bf
000003b0: faf3 0ebf 49c5 0fbf 5ba6 75bf cd1c bd3e
000003c0: da8d 5a3f de1e 603f 75b3 6d3f 7f4f 743f
000003d0: 5f34 6ebf 5379 643f ba6f 6d3f 912e 68bf
000003e0: d65b 77bf 35db 77bf c2cd 63bf 5aff 72bf
000003f0: ee4a 4dbf f778 66bf 71e7 6b3f f8b9 4dbf
-0.63565373 -0.19791883 0.7695376 -0.17436661 0.5374144 0.648978 0.34962255 0.075903654
0.033441156 -0.58787966 -0.14465985 -0.18907431 0.54989475 -0.14971204 0.10524037 0.38771015
-0.17980148 0.43116966 0.36566275 -0.14479949 0.3860711 0.470862 0.28302243 0.49404764
0.49424055 0.08499665 0.3002323 0.41895646 0.3278185 0.57764715 -0.101864584 0.26279628
-0.5628343 0.47503376 0.17409317 0.56959945 0.24544811 0.023483654 0.62455165 0.65017116
-0.18889704 0.062680386 -0.15410039 0.43870813 -0.14920296 0.008960079 0.6084237 -0.1067237
0.2346654 0.5641542 0.5637732 0.29900834 0.3771664 -0.8482613 0.25534108 0.3550018
0.14272974 -0.6047521 -0.5319749 -0.6817597 0.05116114 0.78375524 0.6078206 0.6134058
0.34611246 -0.81021845 0.4792951 -0.30157188 0.6781602 0.6922888 0.022088982 -0.0070662946
-0.45721984 -0.67308366 -0.027097149 0.64572304 0.047461685 -0.07241489 0.4049641 -0.47213355
0.55968696 0.3213604 -0.28550842 -0.42257184 0.31839973 0.2692379 -0.4244595 -0.47555327
0.25357732 0.2549624 0.11241231 0.57158935 -0.19187778 0.6729328 -0.72394973 0.6961457
-0.89568967 0.5896156 -0.8444776 0.4403208 0.36982045 0.4921383 -0.41424245 0.2472726
0.60458034 -0.43012714 -0.25546372 0.58592635 0.24355762 -0.13415067 0.51218647 -0.18353623
-0.8102515 -0.20194542 0.32121098 -0.49173146 0.25713342 -0.9549317 -0.7273469 -0.48471764
-0.29821995 -0.8388435 -0.8389134 -0.9314996 0.26084223 0.26880118 0.49442342 0.5302893
0.32907176 -0.89094704 0.71423954 -0.5403868 0.616145 0.9345561 -0.91239613 -0.8581144
-0.66298217 0.031824593 -0.8146849 0.63769245 -0.64215 -0.44192022 -0.4426779 -0.72702384
0.53818834 -0.75439805 -0.882728 -0.17697239 0.8536395 -0.7310556 -0.76668376 -0.8364844
0.6338185 0.47195327 -0.86214924 0.09408255 -0.4989978 0.78333056 -0.9833127 0.8465702
-0.35327172 0.8576899 -0.86398166 -0.88199407 0.27582562 -0.60679245 -0.87966853 -0.66854537
0.5850219 -0.66240346 -0.9225569 0.678749 0.50396043 -0.580309 0.65907335 -0.5212735
-0.92214483 -0.5564896 0.8345246 -0.6544251 -0.86424845 -0.87213373 -0.8850951 -0.7539358
-0.48789462 -0.85184145 -0.908073 -0.74745697 0.919344 0.6305023 -0.017374678 0.36348447
0.47967017 -0.91719097 0.88491076 0.9472524 -0.8126117 -0.9280665 -0.8092621 0.91033447
-0.8864037 -0.84855705 -0.61052823 0.68505543 0.83090925 -0.9162302 -0.62739336 -0.9670855
-0.22398022 -0.2896869 -0.832324 -0.7210417 -0.9503487 -0.82535094 -0.89256376 -0.4566401
-0.89923006 0.8924844 -0.8817846 0.80127895 0.92801 0.9111289 -0.9115718 0.8645962
-0.83579177 0.89768064 0.92267853 0.77664346 0.89102566 0.17115043 -0.8961922 0.7424877
0.4927154 0.82025164 -0.8966631 -0.8412061 -0.5584103 -0.5616041 -0.95956963 0.36936036
0.853727 0.875471 0.92851955 0.954338 -0.9304866 0.89247626 0.92748606 -0.90696055
-0.96624506 -0.9681886 -0.88985837 -0.94920886 -0.8019246 -0.9002833 0.92150027 -0.8036189

onnx::LSTM_189 f4 [1, 256, 64]
00000000: 51a3 2f3f 5085 44bf a734 5ebf d1ee 0bbf
00000010: 6f5a 143f 17ae 3d3f b59f 41be 8f09 0cbf
00000020: 31e9 c0be 397f 50be e841 eebe 0d9c 30bf
00000030: fc00 11bf 811c fa3d 12a6 75bb 1592 fabe
00000040: da89 b73e 9d03 b93e c53b a3be 0a08 4ebf
00000050: 52f9 593f c665 173f 3022 bcbe c169 6dbe
00000060: d074 413f 0493 5bbf b531 14be 8f73 36bf
00000070: c051 13bf 9574 5cbf e776 edbe f517 c6be
00000080: 83ec 28bf 0b94 37bf 4bc3 113e ba56 1d3f
00000090: 1a34 47bf 6db9 25bf dba9 48be b706 61bf
000000a0: ec19 34bf 36e6 94bd 322a e93e 22eb 283f
000000b0: 3095 4f3f 5bf5 0d3f ce15 393f fb44 5c3e
000000c0: 9718 063f 2e40 403e 1bde 24bf 0049 663e
000000d0: affd 213f 50e8 753f 0c45 1e3f c260 e3bc
000000e0: edca 5cbe e859 cabe ac0c 4cbf 49b9 2abf
000000f0: 298c 64be 7d53 4c3f 1dbd 24bf d777 393f
00000100: 66fb 333f 65f6 debe e1a0 89be b8cc 073f
00000110: 87de 673e 9c26 ba3b 4edf 18bf 82fe 033f
00000120: 3d58 94be 9d8b bfbd 83e3 53bf 53d8 40be
00000130: 2992 83be 2a10 34bf 58d3 133f 85ad e1be
00000140: b74b 923e 7d1c 9ebe 5a86 613d 5b54 993e
00000150: fa5b c3be dca9 00bf 030b 24bf b824 cabd
00000160: beab 93be e5c7 133f 00ca e4be 69a0 11bf
00000170: d911 0f3f 11f1 1c3f 81d7 81be 12a0 3a3f
00000180: c773 953e 7089 233f 27a1 b33e 4fbe 893e
00000190: a597 243f 6473 e9be b9fe e83d be0f 51bf
000001a0: 9097 cb3e d585 743e 2521 fabe 6172 32bf
000001b0: a663 973c f6ff 043f 15c1 0a3d bbb6 dc3e
000001c0: f29c 1c3f 210c adbd f76c 633e b452 e93e
000001d0: c4ed dcbe b4d5 b0bd 8d6a af3d 5ca7 73be
000001e0: 49cd 13bf 9bfe 93be b6f0 0ebd 5c2e aebe
000001f0: eeff 4fbf f89d 053e 83e2 42be f066 38bf
00000200: 62ae 453f 8a20 e2be 366d 01bf 26ed 333f
00000210: 31c8 853e 67b9 22be 8029 15bf b22b 523f
00000220: 1369 c73e 4254 373f 0ecd 5fbf 3d43 053f
00000230: ff9a 0bbe 5872 37bf 29c8 c0be 1651 25bf
00000240: f2d1 1fbf 5a0f 5dbe 069a 0abf 9b02 e83c
00000250: 359c d6be d4c6 d83e 5910 45bf 27a7 333f
00000260: b7a0 fcbe 411a 1c3f b351 e5be 293a a5bd
00000270: 33a0 313f 31e4 9f3e 0681 d4be 2539 6e3e
00000280: 4918 be3e 6b97 6b3e a874 1d3f cd0b c63e
00000290: a105 293f 408b 35bf c90a 1abf 6b85 11bf
000002a0: 37f9 17bf b745 c83e d17f 1ebf 1856 a13e
000002b0: 5f7a 2c3f e419 bb3d 4d54 cbbe 01de b43d
000002c0: 542e 063f 9c11 013f 4451 2ebd 2494 483f
000002d0: 885c 1fbf ac68 86be cf05 313e 4f1d e6be
000002e0: 6902 0ebf 379b 8ebe 6c63 dfbe 6e9c b4be
000002f0: a2d0 283f c7f0 143f 09a9 603e a213 2fbe
00000300: 3712 2d3f a5aa 0cbd ed1a d5be e1a2 393d
00000310: b5d0 633f 2ce7 823e f49c cdbe 43ea ee3e
00000320: 0d11 063f 26d5 323f b4bd 35bf 055f 0dbf
00000330: c629 d4be d824 a3be e98e 503f 5f50 983d
00000340: 597e 28bf df9f 8ebd c898 ed3e 4a4d bc3e
00000350: fb1d 083e 3fb8 253f 1d4a 0dbf 32f8 313f
00000360: 1213 773e 407b b43b ca5a b53d 4034 46bf
00000370: 5453 e83e 9924 543e 3d93 6f3b 1927 b03e
00000380: 5ae0 533f 7afd 6e3d 714f 903e 7f32 3fbe
00000390: f36b fb3e 9617 1abf b31c 133e 1122 52bf
000003a0: 4065 09bf 5bff 09bf 08b2 d6be 978c 0b3e
000003b0: a496 9dbe 8e04 383f 0fe9 973e 7872 3d3f
000003c0: ee41 ea3e 719d 98be cbda 34be 5544 c33e
000003d0: 8a67 99be 1499 42be bf2d 53be 92ea 6c3e
000003e0: c349 613d 3476 99be 4a58 a23d 4b72 3cbe
000003f0: 86bd 993e c80f cd3e 28b9 62be eff9 df3e
0.68608576 -0.7676592 -0.8679909 -0.5466128 0.5795049 0.74093765 -0.1890858 -0.54702085
-0.3767791 -0.20361032 -0.46534657 -0.68988115 -0.5664213 0.12212468 -0.0037483019 -0.48939577
0.3584736 0.3613557 -0.31881538 -0.80481017 0.8514606 0.5913967 -0.36744833 -0.23184873
0.75568867 -0.85771203 -0.14472087 -0.7127008 -0.57546616 -0.8611539 -0.46379778 -0.38690153
-0.6598589 -0.7171027 0.14234655 0.6146046 -0.77813876 -0.6473606 -0.19596045 -0.8790087
-0.70352054 -0.07270472 0.45540005 0.65983784 0.8108702 0.5545251 0.72298896 0.21510689
0.5238127 0.18774483 -0.64401406 0.22488785 0.63277715 0.96057606 0.6182411 -0.027756099
-0.21561785 -0.39521718 -0.79706836 -0.6668897 -0.22319092 0.79814893 -0.64351064 0.72448486
0.7030548 -0.4354736 -0.26880553 0.5304675 0.22643481 0.005680872 -0.59715736 0.51560223
-0.2897357 -0.09352801 -0.8276903 -0.18832521 -0.2569745 -0.70337164 0.5774436 -0.44077697
0.2857339 -0.3088111 0.05505977 0.2994717 -0.3815611 -0.50259185 -0.640793 -0.09870285
-0.28841966 0.5772689 -0.44685364 -0.5688539 0.5588661 0.6130534 -0.2535973 0.729005
0.29189894 0.6388159 0.35083887 0.26903006 0.6429389 -0.4559585 0.113767095 -0.81664646
0.3976407 0.23879178 -0.48853412 -0.6970578 0.018480133 0.51953065 0.033875544 0.43108162
0.6117698 -0.08449579 0.22209536 0.4557091 -0.4315015 -0.08634511 0.08565245 -0.23794311
-0.57735115 -0.28905186 -0.03489753 -0.34019744 -0.8124989 0.13048542 -0.1903172 -0.7203207
0.7721921 -0.4416545 -0.5055727 0.70283735 0.26129296 -0.15891038 -0.5826645 0.82097924
0.38947353 0.7161294 -0.87422264 0.5205572 -0.13633345 -0.7165885 -0.3765271 -0.6457685
-0.62429726 -0.21587887 -0.5414127 0.028321555 -0.41916052 0.42339194 -0.7697807 0.7017693
-0.49341366 0.6097756 -0.44788894 -0.08067734 0.6938507 0.31228784 -0.41504687 0.23263986
0.37127903 0.2300698 0.6150613 0.38680878 0.66024214 -0.70915604 -0.60172707 -0.56844205
-0.59364647 0.39115688 -0.6191378 0.31510997 0.67374223 0.091357976 -0.39712754 0.088314064
0.5241444 0.50417495 -0.04255797 0.78351045 -0.62250566 -0.26251733 0.17287372 -0.44944236
-0.5547243 -0.27852795 -0.4363054 -0.35275596 0.6594335 0.581799 0.21939482 -0.17097333
0.6760592 -0.034342427 -0.41622105 0.04532135 0.88990337 0.25566995 -0.40158808 0.46663103
0.5236977 0.6985649 -0.7099259 -0.55223113 -0.4143812 -0.31864047 0.81468064 0.074372046
-0.6581779 -0.06964087 0.46405625 0.36777717 0.13292687 0.6473426 -0.5519121 0.6951934
0.24128368 0.0055078566 0.08855207 -0.7742348 0.45376074 0.20717086 0.0036556267 0.3440483
0.8276421 0.058347203 0.2818561 -0.18671606 0.49105796 -0.6019224 0.14366417 -0.8208323
-0.5367012 -0.53905267 -0.41932702 0.1362785 -0.30778992 0.7188195 0.29669997 0.7400279
0.45753425 -0.29807618 -0.17661588 0.3813807 -0.29961807 -0.19003707 -0.2062292 0.23136356
0.055001985 -0.29972994 0.07926996 -0.18402974 0.30027407 0.40051103 -0.22140944 0.43745372

onnx::LSTM_190 f4 [1, 512]
00000000: 5cfc 72bf e92d 49bf 6af1 65bf 6087 5dbf
00000010: 74f7 52bf 9e4f 2abf 383f 5abf c69c 56bf
00000020: 3d1a 5dbf ec44 3dbf aa83 6ebf 0f69 53bf
00000030: 3ef4 5bbf 8f4e 57bf bf2c 59bf 3767 31bf
00000040: a5a0 55bf 11a2 7fbf 1034 46bf a135 71bf
00000050: 6cb3 2fbf 41e8 5abf f6fe 49bf 0aa9 43bf
00000060: 8dce 38bf 0933 3fbf a5e9 35bf 4e9b 67bf
00000070: edea 5cbf 6266 18bf 9be7 44bf 566f 4bbf
00000080: 721a 56bf 1767 38bf 58e1 5abf 645b 66bf
00000090: a793 62bf 48a1 6cbf 0a8d 53bf 0adc 59bf
000000a0: dee9 78bf 9c0b 4cbf b8a5 41bf 5adc 2bbf
000000b0: ecb9 5fbf cd2c 5bbf 9b2a 12bf 0058 3fbf
000000c0: 73ff 4dbf 5750 3dbf cd2e 50bf 097f 2abf
000000d0: 64c6 64bf b907 32bf 9b78 3bbf b0fa 5abf
000000e0: 74ae e8be 3db8 02bf 7e58 4ebf 72da 44bf
000000f0: 5668 61bf a6e5 66bf fc3b 3fbf 7490 63bf
00000100: 243b 5dbf f46f 4fbf 1da0 3ebf daa1 2bbf
00000110: 7ce2 7dbf 15fe 5cbf d776 36bf 45a2 63bf
00000120: f8ae 44bf 49e1 43bf d6d1 59bf a3ef 62bf
00000130: 1d04 5cbf de5e 5bbf a357 77bf 2238 2cbf
00000140: 9a5d 5fbf 549c 64bf 6b5e 40bf 28a5 7abf
00000150: 3a8a 23bf 2144 6ebf ae36 47bf 1775 6dbf
00000160: 1e30 38bf a9f7 62bf a38a 65bf 84f1 65bf
00000170: 7111 4bbf 9c98 32bf 1ccd 34bf f34b 63bf
00000180: ddf7 6ebf 79fc 3bbf d272 2abf 328f 51bf
00000190: 9fe7 4cbf cacb 61bf 5a01 56bf aba7 56bf
000001a0: f100 55bf a3d9 70bf 5686 6cbf 16a5 42bf
000001b0: f662 3cbf 6c8a 66bf 4e8d 20bf fdc2 77bf
000001c0: ad5e 3dbf b08f 47bf 30ef 20bf c2ad 4ebf
000001d0: 7fa8 6fbf d9ba 44bf 02a1 5dbf 8167 54bf
000001e0: cd8e 31bf e337 08bf f2c6 4fbf b8c5 30bf
000001f0: 36df 46bf 9023 3abf 96a0 5abf 541a 4fbf
00000200: 7ac4 49bf fff8 eabe 1530 f7be d8b9 253d
00000210: 8b40 7cbf 9d99 113e a8da 0ebf baae e3be
00000220: d86c 35bf b083 6bbf 1b2e 3ebf 9aec 5cbf
00000230: 1abd 4abf a1bb afbe abd5 53bf 7226 25be
00000240: 0e33 5bbf 4a9e 7fbf 6a8e 59bf 9969 34bf
00000250: 1468 19bf 60a1 3ebf e29e 15be dc79 70bf
00000260: f86b 1dbf 5967 1cbf 202b 49bf 7a57 35bf
00000270: 85df 88be ed55 09bf d704 a6be ac12 22bf
00000280: deee 4bbf e334 20bf b839 e2bd 15ba 2bbf
00000290: 8c58 2abf 6591 4bbf b2d8 04bf 5cac 48bf
000002a0: bc17 5bbf 7960 52bf 0c53 85be f5af 27bf
000002b0: b09d 62bf 1c87 6abf eae3 51be 2481 62bf
000002c0: c5e0 37bf 4576 2dbf 9725 d5be 228c 783e
000002d0: a937 10bf e626 39bf 110a 14bf 88b3 fcbe
000002e0: c142 c1be c2e8 98be c8a4 57bf 151f b1be
000002f0: 824f 3fbf ee14 a3be a263 c5be 1d4a 46bf
00000300: 7b31 ffbe cf69 593d 343d 8c3e 9dce bebe
00000310: eb0a 05bf 240a 08be c5b3 213e 81d6 b9be
00000320: f5f2 86be 2e1b 1dbf 1d10 fa3e a603 1b3e
00000330: 0226 3fbe 725c 263e 4016 163f d331 b73e
00000340: 1db1 1c3f d349 21be c3e0 d43e c361 c53c
00000350: 761a 653d 890d bd3e 10d0 d73e dba1 b73e
00000360: 90f2 3c3e 64e9 6a3d 1bc6 9d3e a8ee 12bd
00000370: 0338 a1be c626 693e 0cd6 943e a2cc ba3e
00000380: ad8b e3be c9cf a73e 9c15 e4be 0307 c6be
00000390: 8d54 56be f120 11bf 4127 993e 80f0 743e
000003a0: 91f5 0d3f 455a 8fbe 6848 1e3e d1a4 f9be
000003b0: 88a1 eabe c431 ff3e afa7 583d 2858 f53e
000003c0: 4a57 f4be db0b aabe 8a17 9c3d fb42 efbe
000003d0: 2e67 c43e 65bb aa3d a372 95be a727 cd3e
000003e0: 23b8 c13e bb4f 9e3e ad37 443e 07b0 8a3e
000003f0: 7dd2 06bf c8bc f5be 7917 9cbe e6f0 93be
-0.9491632 -0.7858568 -0.89821494 -0.8653469 -0.82408834 -0.66527736 -0.85252714 -0.8383297
-0.8636816 -0.7393329 -0.93169653 -0.8258218 -0.8591956 -0.84104246 -0.848339 -0.6929812
-0.8344825 -0.9985667 -0.7742319 -0.94222456 -0.6863315 -0.8551064 -0.78904665 -0.7642981
-0.7219017 -0.7468725 -0.7105964 -0.9047135 -0.8629597 -0.59531224 -0.769159 -0.7946676
-0.836341 -0.720323 -0.855001 -0.899832 -0.8850655 -0.92433596 -0.82637084 -0.8510138
-0.97231853 -0.79705215 -0.7564349 -0.67133105 -0.8739307 -0.85615236 -0.5709626 -0.7474365
-0.8046791 -0.73950714 -0.8132141 -0.6660009 -0.8936522 -0.69543034 -0.73230904 -0.8553877
-0.45445597 -0.51062375 -0.8060378 -0.7689582 -0.8804983 -0.90194166 -0.74700904 -0.8889229
-0.86418366 -0.810302 -0.74463063 -0.6704384 -0.9917371 -0.863252 -0.71275085 -0.8891948
-0.7682948 -0.7651563 -0.8508581 -0.88646907 -0.85943776 -0.8569163 -0.966181 -0.6727315
-0.872522 -0.8930104 -0.7514407 -0.9790826 -0.6388279 -0.93072706 -0.7781781 -0.9275679
-0.7194842 -0.8865915 -0.8966467 -0.8982165 -0.7932349 -0.69764113 -0.7062547 -0.88787764
-0.9334696 -0.7343212 -0.6658145 -0.81859124 -0.80040926 -0.8820158 -0.8359581 -0.8384959
-0.8320456 -0.9408209 -0.9239248 -0.7603315 -0.735885 -0.90054965 -0.62715614 -0.96781904
-0.7397259 -0.77953625 -0.6286497 -0.80733883 -0.9361648 -0.76847607 -0.86573803 -0.82970434
-0.6935852 -0.53210276 -0.8116294 -0.69051695 -0.7768434 -0.72710514 -0.85401285 -0.8089955
-0.78815424 -0.45893094 -0.4827887 0.040460438 -0.98535985 0.14218755 -0.5580239 -0.44469243
-0.7086921 -0.91997814 -0.742891 -0.86298525 -0.79194796 -0.34322837 -0.82747906 -0.16127947
-0.8562478 -0.99850905 -0.8498293 -0.7047363 -0.59924436 -0.7446499 -0.1461139 -0.9393594
-0.6149287 -0.61095196 -0.7858143 -0.70836604 -0.26733032 -0.5364674 -0.32425568 -0.6330974
-0.7966136 -0.625807 -0.11046165 -0.67080814 -0.6654136 -0.7951873 -0.5189315 -0.78388
-0.8558309 -0.82178456 -0.26039922 -0.65502864 -0.8852186 -0.9161241 -0.20497099 -0.884783
-0.71827346 -0.6775859 -0.4163024 0.24272206 -0.5633493 -0.7232498 -0.5782786 -0.4935572
-0.37746242 -0.2986508 -0.8423581 -0.34594026 -0.74730694 -0.31851906 -0.38552576 -0.7745684
-0.49842438 0.053079423 0.27390444 -0.37267008 -0.51969784 -0.13285118 0.15791233 -0.36296466
-0.26357237 -0.613696 0.48840418 0.1513811 -0.18666843 0.16246203 0.586277 0.357802
0.61207753 -0.15750818 0.4157773 0.024094468 0.05593344 0.3692439 0.42150927 0.35865673
0.18451905 0.057351485 0.30815205 -0.03587213 -0.31488046 0.22768697 0.29069555 0.36484247
-0.44442502 0.32775715 -0.44547737 -0.38677225 -0.20930691 -0.5669089 0.2991276 0.23919868
0.5545283 -0.27998558 0.15457308 -0.48758557 -0.45826364 0.49842656 0.05289429 0.4791882
-0.47722846 -0.3321217 0.07621677 -0.4673079 0.3835997 0.08336524 -0.29189023 0.40069315
0.37835798 0.30920205 0.19161864 0.27087423 -0.5266493 -0.4799559 -0.30486658 -0.28894728

onnx::LSTM_208 f4 [1, 256, 64]
00000000: df93 353f 8165 1abf 6d47 3abf d546 1dbf
00000010: 12eb 003f ef2a 403f c7ae 41bf 2a1e 22bf
00000020: a39d fabe 159e 4f3f 410e 3fbf 7fef 38bf
00000030: 7750 4bbf bad1 273f e77b 31bf 1f05 063e
00000040: 3ceb b1be 1484 0b3f bbbe 2ebf 9777 00bf
00000050: 9228 613f 8b8a 553f 5474 47bf 8598 5fbf
00000060: 15d1 403f 8979 42bf 7310 e63e 776b 29bf
00000070: c47a 1ebf a627 2dbf d18f 0bbf 1d0e 11bf
00000080: 037a 68bf 32a8 3cbf 50d2 373f 0120 573f
00000090: 8556 63bf bd02 d13e 1edf 003f 0866 4ebf
000000a0: a04a d4be 3ab2 28be 63d3 cabe 6d7b 3d3f
000000b0: a10b 623f 39ae 67bf 4d60 3d3f 7623 5bbf
000000c0: a6b9 533f b9e1 4abf 769b 39bf c844 743e
000000d0: fc10 6abf a303 343f 55cf 493f 09b2 49bf
000000e0: 8c9e 063e 752b 19bf 5018 3abf cafe 57bf
000000f0: 7e97 403f 746f 353f a709 49bf 5229 143f
00000100: e720 4d3f 2020 babe 9797 40bf 08d7 a9bd
00000110: 31e6 3d3f c322 293f 03ae 55bf f0b9 253f
00000120: 2bc6 14bf 8202 403f 8abe 56bf 43fd 49bf
00000130: 0d1a e2be 5906 afbe 3b88 f4be bde9 483e
00000140: 8405 47bf d255 9abc d193 0c3a a765 0abf
00000150: dd54 1c3f af49 ffbe 88ae 30bf f164 11bf
00000160: abe5 0f3f d6ee ecbe 631c a7be f30e 85be
00000170: c5a0 16bd 9406 4cbf 86e5 fabe d7c2 2dbf
00000180: f8e4 10bf e448 33bf 02b4 3b3f fd32 193f
00000190: c79c 41be d1c3 763e f793 943b 1573 26bf
000001a0: 770e 4ebf 2661 9c3d 23db 59bf a21b 4b3f
000001b0: 13cb 463f 1991 253d 6829 1f3f 112b 86bc
000001c0: 78b5 473f c3d7 5fbe 4abb 23bf c1ef fb3e
000001d0: f4d4 5bbf 6948 003f 0863 dc3e d005 28bf
000001e0: 12ab 113e 5d04 07bf 7d05 3abf d03b 2ebf
000001f0: 1931 283f bfa4 283f 7110 bbbe 76ec 3d3f
00000200: 57a9 193f 0b91 6ebd 47f7 0dbf 8d25 103f
00000210: 2efe eb3e 064e 153f 22e6 26bf c5df 4e3f
00000220: f954 05bf b99c 323f 1e07 27bf 2434 1dbf
00000230: 5d37 02bf d744 27bf 9442 39bf b743 b4bd
00000240: 98e8 17bf 897a a4be 2407 d63e 9f04 0a3e
00000250: 120d af3e 593e 1b3f 861e 0bbf 5c39 2a3f
00000260: a728 093f a8eb 873e d53a fcbc ebec e2be
00000270: 0aae 2e3f cfb6 10bf 6f35 c8be 8ec0 283e
00000280: 8ebc 8a3e 5597 1abf 6c44 393f 6bd1 003f
00000290: 1edd d93e a163 df3d 3fa8 1d3e a6cc ffbe
000002a0: 1292 33bf 44aa cf3e ef0e 46bf 56c3 303f
000002b0: 63ab 1f3f 2e0d 04bf ad76 b43e 8fc3 41bf
000002c0: aa18 253f 36ae e83d c7b3 31bf ee4f 0f3f
000002d0: c561 17bf 7c8c debd 4285 cbbd da09 4fbe
000002e0: 4cce b6be 6249 9cbe 5bc6 31bf 707e 3cbf
000002f0: a593 2c3f 52c4 4f3f 835b 10be 291b 153f
00000300: 0a24 16bf 6602 4c3f fcac 58bf 57b8 6fbf
00000310: 228a ff3e 2f92 4b3f 3403 4a3f 3734 69bf
00000320: 295d 5c3f 5f9e 253f 2ddc 123f b707 a0be
00000330: 8eeb 6abf ebf4 743f 77bf 1ebf c181 563f
00000340: e02f a1be 46a6 4bbf 31d3 3a3f c67f 293f
00000350: da20 603f 3f2a 2f3f 487c 423f 0e57 9e3e
00000360: 5698 3c3f d902 57bf dab1 733f 0ac9 c0be
00000370: 024f 66bf fea4 45bf 2702 523f 7daa c4be
00000380: bc6d 373f dd94 3bbf dfd9 59bf 9fd8 56bf
00000390: 77c4 6dbf be59 0f3f c686 6f3f aa55 bebe
000003a0: a926 f33e 646b 3fbf 4cfb 413f 825c 3c3f
000003b0: c4dd 77be 2ca7 1ebf 29c1 453f 1831 8dbe
000003c0: 5722 73bf 6fd9 76bf 4fcc 3bbf 232c 5ebf
000003d0: 958f 433f 9f5b 5fbf 525e 5bbf 331b 413f
000003e0: 6c80 813f ff3c 663f a68c 613f 069e 633f
000003f0: 1eca 2d3f bcf7 503f e25d 42bf 1deb 233f
0.7092876 -0.6031113 -0.7276524 -0.61436206 0.5035869 0.7506551 -0.75657314 -0.63327277
-0.48948392 0.8110059 -0.74631125 -0.7224044 -0.79419655 0.6555439 -0.69329685 0.13087891
-0.34749782 0.5449841 -0.6825978 -0.5018248 0.8795253 0.83414525 -0.7791188 -0.873421
0.75319034 -0.759667 0.44934425 -0.66179603 -0.61906075 -0.67638624 -0.5451632 -0.5666216
-0.90811175 -0.73694146 0.71805286 0.8403321 -0.88803893 0.40822402 0.5034045 -0.8062444
-0.41463184 -0.16474238 -0.396144 0.7401646 0.88298994 -0.9050022 0.7397507 -0.85600984
0.8270515 -0.79250675 -0.7250284 0.23854363 -0.91432166 0.7031805 0.7883199 -0.78787285
0.13146418 -0.59831935 -0.7269335 -0.8437315 0.7523116 0.7087319 -0.78530353 0.5787555
0.8012833 -0.36352634 -0.7523131 -0.08292967 0.7417937 0.6606867 -0.83468646 0.64736843
-0.5811488 0.75003827 -0.8388449 -0.7890207 -0.441605 -0.3418453 -0.47760186 0.19620414
-0.7774279 -0.01883975 0.00053626025 -0.5406136 0.6106699 -0.49860904 -0.69016314 -0.5679465
0.5620982 -0.46275967 -0.32638845 -0.25987968 -0.036774416 -0.7969754 -0.49003237 -0.67875427
-0.5659938 -0.700331 0.73321545 0.59843427 -0.18907462 0.24098136 0.0045342403 -0.6501935
-0.8049082 0.07635717 -0.851 0.7933904 0.77653617 0.04042158 0.62172556 -0.016377958
0.78011274 -0.2185965 -0.63957655 0.49206355 -0.85871816 0.5011049 0.43044305 -0.6563387
0.14225414 -0.5274103 -0.72664624 -0.68060017 0.6569992 0.6587638 -0.3653598 0.74188936
0.6002402 -0.058243793 -0.5545544 0.563073 0.4609236 0.5832218 -0.65194905 0.80810195
-0.52082783 0.6977039 -0.65245235 -0.61407685 -0.5086573 -0.65339416 -0.72367215 -0.08801978
-0.59339285 -0.32124737 0.41802323 0.13478325 0.3418966 0.6064201 -0.5434345 0.66493773
0.53577656 0.2654698 -0.030789772 -0.4432138 0.6823431 -0.56528944 -0.39103267 0.16479704
0.2709698 -0.60387164 0.7237003 0.50319546 0.42551512 0.109076746 0.15396212 -0.49960822
-0.7014476 0.4055959 -0.77366537 0.6904806 0.6237089 -0.5158261 0.35246792 -0.75689024
0.6449076 0.11361353 -0.69414943 0.5598134 -0.5913356 -0.10866639 -0.09937526 -0.20218602
-0.35704267 -0.30524737 -0.6944329 -0.7363043 0.6741279 0.81158936 -0.14097409 0.5824457
-0.5864874 0.7969116 -0.84638953 -0.93640655 0.49910074 0.79519933 0.7891114 -0.910953
0.8607965 0.6469478 0.5736721 -0.31255886 -0.9176568 0.95686215 -0.620109 0.8379174
-0.31481838 -0.7955059 0.729785 0.6621059 0.8755013 0.6842384 0.7597089 0.30925792
0.73669946 -0.8398872 0.95193255 -0.3765338 -0.89964306 -0.77204883 0.82034534 -0.38411322
0.71651816 -0.7327402 -0.8509807 -0.8392429 -0.92877907 0.5599631 0.9356502 -0.37174731
0.47490433 -0.7477324 0.75774074 0.73578656 -0.2420569 -0.61973834 0.77247864 -0.27576518
-0.94974273 -0.9642553 -0.73358625 -0.867861 0.76390964 -0.8724918 -0.85690796 0.7543213
1.0117316 0.8993682 0.8810524 0.88913 0.6788653 0.8162801 -0.75924504 0.6403063

onnx::LSTM_209 f4 [1, 256, 64]
00000000: ec4d 89be 6dc6 13bf df90 303f a2f5 583f
00000010: cf8f 423e 9256 3bbf ce44 603f 9d72 4fbf
00000020: 4ba0 c33e bc1d 2e3f 8467 583f e27e 3e3f
00000030: a9b3 4a3f ddaa 27bf ac90 e7bd fce4 023f
00000040: 831a 73be a6c5 23bf 31e4 3a3f ecec 6c3f
00000050: 74f0 403f d019 443f 9fdb e2be bd76 343f
00000060: 40e4 383f 5831 a4be 6d5b 653f d643 39bf
00000070: 5934 5ebf 1a5c 59bf 9310 203f df53 51bf
00000080: 58de 2f3f a145 d63e 8921 44be dea5 5fbe
00000090: d51d 093e 574e 56bf 6e1f 423f d082 22bf
000000a0: e1a0 403f 5d08 41bf bf3b 38bf 178c 37bf
000000b0: c135 2cbf 44f8 2e3f 0c61 b73e ebbc fa3e
000000c0: 77a5 4ebf e1ac 363f 46e0 353f 5320 2b3f
000000d0: 3282 0d3f 2e3d 43bf 5f56 1dbf 08c5 4a3f
000000e0: 51c6 4dbf 5608 413f 6773 643f 0aba 25bf
000000f0: 8d55 2bbf 7bf1 493f 007a 43bf 6c0c 3f3f
00000100: e0c3 27bf a4b2 54bf 8a05 573f a5e8 443f
00000110: d35c afbe 2b24 d2be 6be6 4d3f 1d83 31bf
00000120: d195 ecbe 1a86 673f cf16 4a3f becd 483f
00000130: 8fcb 483f 1108 58bf 40de 623f 2425 443f
00000140: 5405 173e d9ab 55be 6348 553f 87ec 4c3f
00000150: 4cab 713f ddbb 553f d4ab ff3e 7ebe 523f
00000160: 72ba 413f 1745 d0be 56b2 3c3f 5f0f 33bf
00000170: c4c2 12bf dc99 55bf 3fe4 a23d c915 3dbf
00000180: 6d8a 563f 2cf4 ad3e 16b4 143f 2ee5 0f3f
00000190: 34e4 363f c8e4 5abf ef91 3d3f e7e2 143f
000001a0: 53fa 4d3f f568 27bf ac03 603e 8da3 2bbf
000001b0: bbe3 2ebf 02b0 0fbd d83a ff3e 717a 233f
000001c0: 9e8a 25bf 65b4 643f 877d 1d3f 54a6 1d3f
000001d0: 32b2 3a3e dd75 4fbf d39d 41bf 1d1b 163f
000001e0: 54f5 4bbf 76eb 403f 7034 353f 02ef 1dbf
000001f0: e1d4 40bf 3db3 353f cb5e 2cbf a888 383f
00000200: 7b33 12bf 641f 45bf 35a2 603f 7d2b 293f
00000210: e9fa d43e 4860 f8be fb3f 353f e038 49bf
00000220: d9f0 0fbf f55c 403f 71d3 4f3f ca04 463f
00000230: de21 063f 5894 35bf e822 313f 51f3 31be
00000240: dd30 dc3e 0c81 9c3e 8596 3e3f d97a 1e3f
00000250: 485e 623f af14 393f 7817 6bbe 1107 323f
00000260: 7750 2f3f 22f6 18bf c40b 233f ca0d 5bbf
00000270: 1ea1 fcbe ac22 2cbf 6649 c73e 1b79 20bf
00000280: ff63 3b3f 3cf6 043f 3ba8 b13e 4bff 20bc
00000290: 9e6c 073f 3704 41bf 131f 2e3f 86ff f0bc
000002a0: a155 4f3f 4dcb 39bf b63e c03e 3925 fa3e
000002b0: 56c1 24bf eb04 f9be 64e7 b53d 70c9 1c3f
000002c0: 4ac4 d83e a4d7 5b3f 47ff 1c3f 2f91 cb3e
000002d0: 9ce1 103f df66 1cbf a90f b6be 16e4 473f
000002e0: c21a 26bf 425b 293f b5fd 2e3f 306f 9f3e
000002f0: 7055 1dbf c7f0 263f 41d3 0cbf a133 443f
00000300: fd65 31bf bb19 34be 200a 263f 18e3 cc3e
00000310: d100 793d 79ca aabe d2b5 293f b94c 15bf
00000320: 20e5 34be cae3 0d3f ed34 1e3f f3cd 363f
00000330: 440a 143f e5c4 0bbf 4a3b 303f 796b 363e
00000340: 8148 f33d df4c 123f 5d72 443f 298c a9bd
00000350: 2d27 273f f96f 593f 2b7e e3be 3bdb 183f
00000360: 0a9b 1d3f 43c0 923e eebe 103f d90c 2fbf
00000370: 2e2f ffbe f311 e3be 43d6 ef3e 05b7 b2bd
00000380: db7f febe aeb1 083f 787d 213f a4e0 403e
00000390: 22dd cbbe 7a3e 2abf 6930 463f fb88 28be
000003a0: 5d01 c33e e0e8 783e f9da e8be 618f 0c3f
000003b0: e31b 4cbe e76f 013e 17e9 84be 2918 b53e
000003c0: f14f 16bf 216b 223f 2619 f13e 0e4d 33bf
000003d0: edea 87be 36a3 a1be f2fd fc3e fd34 ffbd
000003e0: 1038 16bf 470e 463f 45df 643e cb26 7c3e
000003f0: 01a2 1cbf 5bec c9be 69c1 53be 1c48 443f
-0.26817262 -0.5772465 0.68971056 0.84749806 0.19000171 -0.7317897 0.8760499 -0.8103426
0.3820823 0.6801412 0.8453295 0.7441236 0.7918039 -0.6549509 -0.11306891 0.5113065
-0.23740582 -0.6397346 0.7300444 0.92549014 0.753669 0.76601887 -0.44308183 0.7049368
0.7222328 -0.32068896 0.8959263 -0.72369134 -0.86798626 -0.8490616 0.6252529 -0.817686
0.68698645 0.41849998 -0.19153418 -0.21840617 0.13390286 -0.8371329 0.7582921 -0.63480854
0.7524548 -0.75403386 -0.71966165 -0.71698135 -0.6726952 0.68347573 0.35816228 0.48972258
-0.8072123 0.7135754 0.7104534 0.668462 0.5527679 -0.7626523 -0.61459917 0.79206896
-0.8038073 0.75403345 0.8923859 -0.64737 -0.66927415 0.78884095 -0.7635803 0.7462833
-0.65533257 -0.83085084 0.83992827 0.7691749 -0.34250507 -0.4104322 0.80429715 -0.6934069
-0.4620805 0.90439 0.78941053 0.7843894 0.78435606 -0.8438731 0.88620377 0.7661917
0.14748126 -0.20866336 0.8331358 0.8004841 0.94402003 0.8348978 0.49935782 0.8232192
0.7567512 -0.4067771 0.7370962 -0.6994533 -0.5732844 -0.83437896 0.07953691 -0.73861367
0.8380497 0.3397535 0.5808729 0.56209075 0.7144196 -0.8550534 0.740508 0.58158726
0.8046009 -0.65394527 0.218764 -0.67046434 -0.6831624 -0.035079964 0.49849582 0.63858706
-0.6466464 0.8933776 0.61519665 0.6158192 0.18232039 -0.8103922 -0.75631446 0.5863512
-0.79671216 0.75359285 0.7078314 -0.6169282 -0.7532483 0.7097662 -0.6733214 0.7208352
-0.571098 -0.77001023 0.8774751 0.6608198 0.4159768 -0.48510957 0.7080075 -0.7860241
-0.5622688 0.7514184 0.8118201 0.7735106 0.5239543 -0.7092948 0.6919389 -0.17377974
0.4300603 0.30567205 0.74448425 0.619062 0.8842511 0.72297186 -0.22958171 0.6954203
0.68482155 -0.5975057 0.6368983 -0.85567915 -0.49341673 -0.67240405 0.38923186 -0.6268479
0.73199457 0.51938224 0.34698662 -0.009826492 0.5290011 -0.75397056 0.68016165 -0.029418718
0.80990034 -0.7257584 0.37547845 0.48856524 -0.6435751 -0.48636565 0.08882025 0.6124487
0.42337257 0.85875916 0.6132702 0.39759204 0.5659425 -0.6109447 -0.35558823 0.78082407
-0.6488458 0.66154873 0.68355876 0.31139517 -0.6145849 0.6521115 -0.5500985 0.7664128
-0.69296247 -0.1758794 0.648592 0.4001701 0.060791794 -0.333576 0.6629306 -0.58320194
-0.17665529 0.55425704 0.6179951 0.71408004 0.57828164 -0.5459731 0.6884047 0.17814435
0.118790634 0.57148546 0.76737005 -0.082786866 0.6529415 0.8493648 -0.44432196 0.5970952
0.61564696 0.2866231 0.56541336 -0.6837898 -0.49840683 -0.44349632 0.46843156 -0.087263145
-0.4970692 0.5339612 0.63082075 0.18835694 -0.39817148 -0.6650158 0.7741762 -0.16458504
0.38086978 0.24307585 -0.45479563 0.5490628 -0.19932513 0.12640344 -0.25959083 0.35369995
-0.5871573 0.63444716 0.470895 -0.7003945 -0.26546422 -0.31569833 0.49412495 -0.124612786
-0.58679295 0.77365535 0.22350796 0.24624173 -0.611847 -0.39438137 -0.20679249 0.7667253

onnx::LSTM_210 f4 [1, 512]
00000000: 3d8a 54bf 60fa 47bf 9221 46bf 32b0 32bf
00000010: 889d 71bf ced8 5fbf b75b 44bf efe9 67bf
00000020: 8eff 54bf 948b 76bf f722 51bf 8ac3 3bbf
00000030: f6b3 66bf 7d5b 4dbf f3f0 5cbf 722e 47bf
00000040: 267c 4cbf 49f1 66bf 6cb0 43bf 23b1 4fbf
00000050: f464 66bf e5fc 40bf c194 55bf 379e 40bf
00000060: 5d46 22bf 21d1 80bf 28c0 34bf d379 4ebf
00000070: 6f64 6fbf b2f1 3ebf 930d 52bf dad1 3abf
00000080: db00 4fbf 0a0f 70bf 295e 4ebf cb79 76bf
00000090: 69d3 72bf 48f6 5cbf 4122 7abf 6452 30bf
000000a0: 6db4 0ebf f0d1 50bf 9a94 3abf b088 30bf
000000b0: 92f7 43bf f00c 45bf 05ad 3ebf d93a 35bf
000000c0: 6575 6fbf e0dc 76bf bade 74bf c5db 4ebf
000000d0: 08a2 48bf 3e0c 35bf c8a4 4cbf 9d63 68bf
000000e0: 8648 43bf 10c5 49bf 3090 36bf c2e7 33bf
000000f0: f3db 74bf ed70 53bf 488c 06bf fe4c 5cbf
00000100: 42a1 79bf 2395 65bf b5ac 38bf 2d4f 23bf
00000110: e00d 7cbf 3ef0 5ebf a4e9 42bf a3ea 5fbf
00000120: 94a4 38bf 1363 79bf 30e8 67bf 3573 6ebf
00000130: 6492 48bf 444f 3cbf e588 73bf a26e 5abf
00000140: ad6c 65bf 6fc4 68bf b860 68bf bd32 5bbf
00000150: 6466 71bf 19ca 49bf 1ca1 64bf 6c1f 5bbf
00000160: 6115 51bf 7738 7bbf f8fd 5dbf 8ec5 4ebf
00000170: 39a5 3bbf 6b8e 5dbf d1a0 3abf 8484 55bf
00000180: a845 46bf e7ce 5ebf 6205 7cbf 83e0 4cbf
00000190: 2776 5cbf 1683 4cbf 873c 74bf 5fec 3dbf
000001a0: 4a59 57bf 4dce 70bf bc11 5abf 717a 54bf
000001b0: b419 70bf 73f9 6fbf 2bd9 41bf 352a 4bbf
000001c0: 3d3c 4fbf 6e6d 4cbf a79d 49bf ff7a 6ebf
000001d0: 0726 31bf 66c5 4fbf 9db7 64bf e78f 68bf
000001e0: d476 48bf 682b 50bf 033c 39bf b4ea 3ebf
000001f0: c593 46bf c0e5 3ebf a22a 15bf f1ce 48bf
00000200: ea6a 61bf 0d70 37bf c3d1 1fbf 6b86 16bf
00000210: 4abe 52bf 7458 1bbf 1800 38bf 62b2 4bbf
00000220: f0b8 0fbf 169a 70bf 9be9 41bf 2525 3dbf
00000230: f1d0 31bf f3bf 6abf 202e 66bf eaad 47bf
00000240: 1c74 4abf d433 5cbf 99a6 71bf 9e0b 3ebf
00000250: 2d9c 67bf 9bda 5ebf 2f57 5dbf 664c 5abf
00000260: fb37 833e a660 66bf c0c8 04bf cc2e 4ebf
00000270: 6c00 4abf 16ce 43bf a5f8 51bf b0aa 05bf
00000280: 47ec 66bf 4938 5dbf a69e 48bf 2108 3dbf
00000290: bfe9 51bf 61dc 5ebf 59c1 7cbf 969e 1bbf
000002a0: 3147 17bf 45cc 73bf 9257 5bbf 817f 49bf
000002b0: daef 70bf 5e4a 3abf 20cb 5cbf bed4 56bf
000002c0: 854b 5ebf 4e0b 79bf 7446 3fbf e12d 3fbf
000002d0: 40b3 5fbf 3be3 37bf de4c 69bf 156d 4bbf
000002e0: 3578 3fbf 1368 51bf 5b1e 27bf ce2c 40bf
000002f0: 759a 67bf b9e8 59bf 1bba e6be 120c 53bf
00000300: 9659 a1be b8ef ef3e f900 5b3d 2e51 073c
00000310: a2fa 01bf 418b 01bf d195 233e e36d 393f
00000320: b15b 343d dd40 36bf bfe0 15bf 52f8 9bbe
00000330: 4094 17bf 58d5 a63e 1344 e33e 4d48 0cbf
00000340: 1978 423f 158a 823e 1275 e4be 6757 a0be
00000350: 18cf 18bf 7b8b ae3e 46a4 05bf ccc7 b83e
00000360: fd97 82bc 908b f4be 5770 b83e 4cfb 1c3f
00000370: cdd6 0a3f 0e7b c83e 97cf eb3e 22cb c63e
00000380: ef1a debe 3ae6 c43e f043 dfbe 5b22 2f3e
00000390: 8c39 803c 4bc0 973d f1e0 a23e 37be 21be
000003a0: d7c5 03bf 3156 fd3e 85c5 db3e a0f5 e23e
000003b0: 98e6 193f 738e 263c 33b5 d43e d7f6 04bf
000003c0: 62d2 0a3f ad46 aebe 99cd 48bd 374c 9f3e
000003d0: 1263 323f 9531 1e3f 75fc 203f 2bae 8b3e
000003e0: d8ad 83be 1a67 123f 257e d5be 270d 4b3f
000003f0: 48d7 e03e fcc2 8dbe 1634 0e3f 9ae8 1a3e
-0.83023435 -0.78116417 -0.77394974 -0.698001 -0.94381 -0.8744019 -0.76702446 -0.9059133
-0.83202446 -0.9630673 -0.8169398 -0.73345244 -0.9011835 -0.80217725 -0.8630516 -0.77805245
-0.79876935 -0.9021192 -0.76441073 -0.81129664 -0.8999779 -0.75385886 -0.83430105 -0.75241417
-0.63388616 -1.0063821 -0.7060571 -0.8065464 -0.93512625 -0.7458755 -0.8205196 -0.7297646
-0.8086068 -0.9377295 -0.80612427 -0.9627959 -0.94853836 -0.86313295 -0.9770852 -0.6887572
-0.5574406 -0.8157034 -0.72883 -0.6895857 -0.7654964 -0.76972866 -0.74482757 -0.7079292
-0.93538505 -0.9643078 -0.95652354 -0.8080409 -0.7837224 -0.70721805 -0.79938936 -0.90777
-0.76282537 -0.7881632 -0.7131376 -0.7027551 -0.95648116 -0.82594186 -0.525578 -0.8605498
-0.97511685 -0.8968069 -0.7213853 -0.6379269 -0.9845867 -0.8708533 -0.7613776 -0.874674
-0.72126126 -0.974168 -0.90588665 -0.9314454 -0.78348374 -0.7355845 -0.9513076 -0.8532506
-0.8961895 -0.90924734 -0.9077258 -0.85624295 -0.9429686 -0.78824 -0.89308333 -0.8559482
-0.81673247 -0.98133034 -0.8671565 -0.80770195 -0.73298985 -0.8654544 -0.72901636 -0.8340533
-0.77450037 -0.8703446 -0.98445714 -0.8003008 -0.86117786 -0.7988752 -0.9540486 -0.741888
-0.8412062 -0.9406479 -0.8518331 -0.8299933 -0.9378922 -0.93740004 -0.75722 -0.7936128
-0.8095129 -0.79854476 -0.78756183 -0.9315643 -0.6919865 -0.8116058 -0.8934267 -0.9084458
-0.7830632 -0.8131623 -0.72357196 -0.7457688 -0.7756923 -0.7456932 -0.5826818 -0.7844077
-0.8805376 -0.7165535 -0.62429446 -0.58798856 -0.8232161 -0.60681844 -0.71875143 -0.79569066
-0.5614157 -0.93985116 -0.7574708 -0.73884803 -0.69459444 -0.9169914 -0.8991413 -0.77999747
-0.7908342 -0.86016583 -0.9439483 -0.74236476 -0.9047268 -0.87052315 -0.86461157 -0.85272825
0.25628647 -0.89991224 -0.5186882 -0.80540156 -0.78906894 -0.7648634 -0.82020026 -0.52213573
-0.9020428 -0.8641401 -0.7836708 -0.7384053 -0.81997293 -0.8705502 -0.98732525 -0.6078886
-0.59093004 -0.95233566 -0.85680497 -0.7871018 -0.94115984 -0.72769725 -0.86247444 -0.8391837
-0.86833984 -0.97282875 -0.7471688 -0.7467938 -0.8738289 -0.718311 -0.91132915 -0.7946332
-0.74792796 -0.8179943 -0.65280694 -0.75068367 -0.9047006 -0.8512073 -0.45063862 -0.8244029
-0.3151366 0.46862578 0.053467724 0.008259101 -0.5077306 -0.5060311 0.15975119 0.724333
0.044032756 -0.71192724 -0.5854606 -0.3046289 -0.59210587 0.32584643 0.44387874 -0.5479782
0.75964504 0.25495973 -0.44620568 -0.31316683 -0.59691 0.3409079 -0.52203786 0.36089933
-0.015941614 -0.47762728 0.36023208 0.6132095 0.5423401 0.39156383 0.46056816 0.38826853
-0.43379924 0.384569 -0.4360652 0.1710295 0.01565244 0.07409724 0.31812242 -0.15795217
-0.51473755 0.4947982 0.42924133 0.44328022 0.60117483 0.0101657985 0.41544494 -0.5193915
0.5422727 -0.34038296 -0.0490242 0.31112835 0.6968242 0.61794406 0.6288522 0.27281317
-0.2571857 0.5718857 -0.41697803 0.79316944 0.43914247 -0.27687824 0.55548227 0.15127793
